Ant/Ant_weights.pth (torch_old, 287278 bytes, 36 tensors)

log_std f4 [1, 8]
0	0xbff4bda0	-1.9120369
1	0xbff209bf	-1.8909224
2	0xc003fb89	-2.0622275
3	0xc00601c1	-2.093857
4	0xbfec477f	-1.8459319
5	0xbffb161f	-1.9616126
6	0xbfe7d5fc	-1.8112178
7	0xbff622c7	-1.9229363

fc1.weight f4 [64, 111]
0	0x3e91d93a	0.28486043
1	0x3dcab3f6	0.09897606
2	0x3e53acfb	0.20671456
3	0x3ebb18ff	0.36542508
4	0x3e04120e	0.12897512
5	0x3da205e7	0.07911282
6	0x3eb0a23f	0.34498784
7	0xbe1636e0	-0.1466937
8	0xbd317924	-0.04332842
9	0xbdfb7916	-0.12278955
10	0x3d985e51	0.074398644
11	0xbdb020f5	-0.08600036
12	0xbddfeb35	-0.10933534
13	0x3e3d064f	0.18459438
14	0xbec3e4d3	-0.38260517
15	0x3e68dae9	0.22739758
16	0x3da9c422	0.082893625
17	0xbc20ea9a	-0.009821558
18	0x3c33bbcf	0.01097007
19	0x3ce3c790	0.02780512
20	0xbbec4d68	-0.007211376
21	0xbd9ced8d	-0.07662497
22	0xbe6464e1	-0.22304107
23	0xbe48bc63	-0.19603114
24	0xbe150e35	-0.14556201
25	0x3dd97a5b	0.106190406
26	0x3b81c6e4	0.003960477
27	0xbd36e498	-0.044651598
28	0x3c5f6053	0.013633805
29	0x3c9e4e55	0.019324461
30	0x3d6b5f40	0.057463884
31	0xbd6faba2	-0.05851329
32	0xbd1a1656	-0.037618957
33	0xbe1d85c8	-0.15383065
34	0x3baffdbd	0.005370824
35	0xbd8086b2	-0.06275691
36	0xbe084da0	-0.13310862
37	0x3e68939d	0.2271256
38	0xbd329566	-0.04359951
39	0xbd5c4623	-0.053777825
40	0xbc5b61db	-0.01339003
41	0xbd8d7bfd	-0.069084145
42	0xbe2b60c2	-0.16736129
43	0xbd4b3609	-0.04961208
44	0xbd6074fb	-0.05479906
45	0xbda52948	-0.080645144
46	0xbe392308	-0.1807977
47	0xbe0125dd	-0.126121
48	0xbd862076	-0.0654916
49	0x3e7df3a9	0.2479998
50	0xbaac5c6c	-0.0013150102
51	0x3c652e45	0.013988082
52	0xbd9158fa	-0.07097049
53	0xbe1af277	-0.15131555
54	0xbd9ada1d	-0.07561133
55	0xbe3d9430	-0.1851356
56	0xbd98d7b9	-0.07463021
57	0xbcdfc438	-0.027315244
58	0xbd685108	-0.056717902
59	0xbe1f6ce4	-0.15568882
60	0x3ddd40f8	0.108034074
61	0xbd6e30dd	-0.05815207
62	0xbcd5ce3e	-0.02609932
63	0xbd30c785	-0.043159027
64	0x3dab9f62	0.08380009
65	0x3cc57d2a	0.024107534
66	0xbcf2f52a	-0.029657919
67	0x3d56939b	0.05238686
68	0x3d20da2f	0.039270576
69	0x3dc97225	0.098362245
70	0x3dc4a03f	0.09600877
71	0x3c34f29a	0.011044169
72	0xbe05b83e	-0.13058564
73	0xbe3e72bc	-0.18598455
74	0x3d355809	0.04427341
75	0x3c8b32be	0.01699197
76	0x3d3ac49d	0.04559766
77	0xbe4ba0d2	-0.19885567
78	0x3c5c2b41	0.013438047
79	0x3ce96e1b	0.028494885
80	0x3df3a91e	0.11897491
81	0xbd44e882	-0.0480733
82	0x3d60def0	0.05490011
83	0x3d457766	0.04820957
84	0x3dd1b66d	0.10239873
85	0x3e18d274	0.14924031
86	0xbcbb20b3	-0.02284274
87	0x3d9b0f4c	0.07571277
88	0x3e3e2bc3	0.18571381
89	0x3e138376	0.14405617
90	0x3d7dc67c	0.061956868
91	0xbc9aba0b	-0.01888754
92	0x3d6e8ab8	0.05823776
93	0xbdd77ab0	-0.10521448
94	0xbdc55d10	-0.09636891
95	0x3da118c0	0.07866049
96	0x3d51adcb	0.051191133
97	0x3da44d04	0.08022502
98	0xb999f78f	-0.0002936688
99	0xbd6c5276	-0.05769583
100	0xbe124c76	-0.1428698
101	0xbdb53bbd	-0.08849285
102	0xbd9e8c9d	-0.077416636
103	0xbda02935	-0.078203596
104	0xbcfe9c99	-0.031080531
105	0x3dbbda80	0.09172535
106	0xbc9f3001	-0.01943207
107	0xba94a8a0	-0.0011341758
108	0x3ce8738b	0.028375408
109	0xbcb6f2ff	-0.022332666
110	0xbe0e17cc	-0.13876265
111	0xbce7f42c	-0.028314672
112	0x3e657795	0.22408898
113	0xbe911686	-0.28337497
114	0x3d860e23	0.06545665
115	0xbdef52e1	-0.1168573
116	0xbe1d76c9	-0.15377344
117	0x3d0480dc	0.032349452
118	0xbe46676d	-0.19375391
119	0x3e499468	0.19685519
120	0x3ce80001	0.028320314
121	0xbd8598c3	-0.065232776
122	0x3d636cab	0.055523556
123	0x3e096334	0.13416749
124	0x3e47e272	0.19519976
125	0xbe23d5a2	-0.15999463
126	0xbe7601f5	-0.24024184
127	0x3e590c24	0.21196038
128	0x3e7369be	0.23770806
129	0x3ebfb5d5	0.37443414
130	0x3db6cc50	0.08925688
131	0xbc14f7e1	-0.009092302
132	0x3bc68cbb	0.006059257
133	0xbe231b39	-0.15928353
134	0xbd7b7c4b	-0.061397832
135	0xbe0ed69a	-0.13949051
136	0x3e9145f5	0.28373685
137	0x3e695b7d	0.22788806
138	0x3cf0a187	0.029373897
139	0xbd318b93	-0.043346
140	0x3be5255d	0.0069929794
141	0xbd115e19	-0.03549013
142	0x3c9fb225	0.019494126
143	0x3e0ef714	0.1396144
144	0x3d8d19af	0.068896644
145	0x3e7cd398	0.24690092
146	0x3de3af14	0.11117378
147	0x3d46b9f0	0.048517168
148	0x3d8b62f8	0.06805986
149	0xbce79d3e	-0.028273221
150	0x3cf493d4	0.029855646
151	0x3e01acfd	0.12663646
152	0xbd70f594	-0.05882795
153	0x3d40a265	0.04702987
154	0xbe012744	-0.12612635
155	0x3d082448	0.033237725
156	0xbd8c77f9	-0.068588205
157	0xbc5a4048	-0.01332099
158	0xbd510882	-0.051033504
159	0xbcb2ced3	-0.021827137
160	0xbe3073d5	-0.17231686
161	0x3d1de96a	0.03855268
162	0xbc1d64f7	-0.009606591
163	0x3dc77c02	0.097404495
164	0x3c91f853	0.017818606
165	0xba4750be	-0.0007603279
166	0x3d643eb9	0.05572388
167	0xbce08f3f	-0.027412055
168	0x3c6f76aa	0.014615694
169	0x3cd6099b	0.026127627
170	0xbd88950a	-0.06669052
171	0xbd854a08	-0.06508261
172	0x3d15203c	0.036407694
173	0x3e07773a	0.13229075
174	0x3da16678	0.078808725
175	0xbdd7518e	-0.10513602
176	0x3b20e9a2	0.0024553319
177	0x3ddb9f73	0.10723772
178	0x3dee1f18	0.116270244
179	0xbe23fed7	-0.16015182
180	0x3d30e741	0.04318929
181	0xbddd427e	-0.10803698
182	0xbd3db865	-0.04631843
183	0x3dbcf0ce	0.09225617
184	0xbdf51c4c	-0.11968288
185	0x3da89211	0.08230985
186	0x3e1812d9	0.1485094
187	0x3d021336	0.031756602
188	0xbd9f082b	-0.0776523
189	0xbdac5523	-0.08414676
190	0x3dfd0b11	0.123556264
191	0x3a586e0e	0.00082561455
192	0x3d0cd007	0.034378078
193	0x3c73ea3a	0.014887387
194	0x3e2b9045	0.16754253
195	0x3e197cbf	0.14988993
196	0x3dd9f26f	0.10641944
197	0x3d3732d8	0.044726223
198	0x3d7c4c2d	0.061596084
199	0x3dbf5da6	0.09344034
200	0xbdd98fda	-0.10623141
201	0xbd17505c	-0.03694187
202	0xbe5c594e	-0.21518442
203	0xba997172	-0.0011706783
204	0x3cf4cb2a	0.029882032
205	0x3cdbafa3	0.026817149
206	0x3e74dd2f	0.239125
207	0x3e53482a	0.20632997
208	0xbd9d89c8	-0.07692295
209	0x3e1720d3	0.14758615
210	0xbcfddde5	-0.030989597
211	0xbd91bbf1	-0.07115925
212	0x3bc6232e	0.006046674
213	0x3dcb4d13	0.0992681
214	0xbcdf4fa2	-0.027259652
215	0x3e112602	0.14174655
216	0xbdad3253	-0.08456864
217	0x3d6ce107	0.05783179
218	0xbe288d20	-0.16460085
219	0xbde73658	-0.11289662
220	0x3d30ccc4	0.04316403
221	0x3d942801	0.07234193
222	0xbe4f7f41	-0.20263387
223	0xbbe67627	-0.007033128
224	0xbe59763b	-0.21236508
225	0x3dcba293	0.09943118
226	0x3e0b1d4d	0.13585396
227	0xbe2bbeab	-0.16771953
228	0xbe6f8c3e	-0.23393342
229	0x3d167fe3	0.036743056
230	0x3dc079bb	0.09398218
231	0x3eb05dc7	0.34446546
232	0x3e5993bd	0.21247764
233	0x3db834d6	0.08994453
234	0x3e4ffcc3	0.20311265
235	0xbda9b3e8	-0.082862675
236	0x3e928cd9	0.28623083
237	0xbee9a4b9	-0.45633486
238	0xbe525d66	-0.20543441
239	0xbd2c2a2c	-0.042032406
240	0xbda17677	-0.078839235
241	0x3d214ab2	0.039377876
242	0xbd95c1ce	-0.07312356
243	0x3e395875	0.1810015
244	0xbe042fe9	-0.12908901
245	0x3e05d027	0.13067685
246	0x3e68bfd5	0.22729428
247	0xbe7dc1c3	-0.24780945
248	0xbe378945	-0.17923458
249	0x3d177f1e	0.036986463
250	0x3cc44f25	0.02396352
251	0xbde54e0e	-0.111965284
252	0x3d1888e8	0.03723994
253	0xbe5a264a	-0.21303669
254	0xbd8b7293	-0.06808963
255	0xbd9d64a2	-0.0768521

fc1.bias f4 [64]
0	0x3e5d481f	0.21609543
1	0x3e154e5b	0.14580671
2	0x3cf15c08	0.02946283
3	0xbd51d528	-0.051228672
4	0xbcb575fc	-0.022150986
5	0x3b1656f2	0.0022940007
6	0xbc5d3df0	-0.013503537
7	0xbcd78f2b	-0.026313385
8	0xbcad385b	-0.021145036
9	0xbcce83cd	-0.025209332
10	0x3d98fa59	0.07469625
11	0xbd252003	-0.040313732
12	0xbd92fd26	-0.071771905
13	0x3d9a1c8f	0.07524978
14	0xbc2d45d6	-0.010575732
15	0xbd7043fb	-0.05865858
16	0x3d9236e8	0.07139379
17	0xbcaba47f	-0.020952461
18	0xbaa377d4	-0.0012471625
19	0x3d84b68c	0.064801306
20	0x3dc07e82	0.093991295
21	0xbdcfc263	-0.10144498
22	0x3c9af1c3	0.01891411
23	0xbdfe3bc3	-0.124137424
24	0xbe259ede	-0.16173884
25	0x3e027cbe	0.12742898
26	0xbe6910e9	-0.22760357
27	0xbdb995ad	-0.090617515
28	0x3d956a13	0.07295623
29	0xbdc2776a	-0.09495433
30	0xbd2d6d86	-0.042340778
31	0xbce60228	-0.0280772
32	0xbd20ce49	-0.03925923
33	0x3d79652d	0.060887504
34	0x3c8dedcd	0.017325306
35	0xbc11288b	-0.008859764
36	0xbe084b75	-0.13310035
37	0xbce32432	-0.02772722
38	0x3d7b14c2	0.061299093
39	0xbe00c13d	-0.12573715
40	0x3dd9bfd8	0.106322944
41	0xbcfc8f69	-0.030830102
42	0xbc6856ee	-0.014180882
43	0xbe2b8095	-0.16748269
44	0x3d95e3cb	0.07318839
45	0x3de5f615	0.11228577
46	0x3b84aa3a	0.004048613
47	0x3de7238d	0.11286078
48	0xbde98016	-0.114013836
49	0xbdc275f4	-0.09495154
50	0xbdf77bbd	-0.12084148
51	0xbc6a2c38	-0.014292769
52	0x3db7d45e	0.08976053
53	0xbe3458f8	-0.17612064
54	0x3d93d9d6	0.07219283
55	0x3e489a1f	0.19590043
56	0x3c9d6b86	0.01921631
57	0xbda677ee	-0.081283435
58	0x3dd3d530	0.10343397
59	0x3e0f6b3d	0.14005752
60	0xbea36e26	-0.31919974
61	0x3ca0b927	0.019619538
62	0x3c555c3e	0.0130224805
63	0xbd9552b5	-0.07291166

fc2.weight f4 [64, 64]
0	0xbebaaa44	-0.36458027
1	0xbddc6c3c	-0.107628316
2	0x3dbf4687	0.09339624
3	0xbe0586bf	-0.13039683
4	0xbed14ed9	-0.40880468
5	0xbdfdcfbe	-0.12393139
6	0xbcbff8df	-0.0234341
7	0xbe97cea3	-0.2964984
8	0xbc693884	-0.014234666
9	0x3c03b4b5	0.008038689
10	0x3e0d2a7a	0.13785735
11	0x3e1ff91e	0.15622374
12	0x3cad632b	0.021165451
13	0xbe44e9fc	-0.19229883
14	0x3d90527c	0.07046983
15	0xbd98c696	-0.07459752
16	0xbeb34631	-0.3501449
17	0xbe231f42	-0.15929893
18	0xbd66e7db	-0.05637346
19	0x3d94fdae	0.07274948
20	0xbe3b18bf	-0.18271159
21	0x3c9ab6c9	0.018885987
22	0xbd27e824	-0.04099287
23	0x3dc4eb2e	0.096151695
24	0xbd66c1e2	-0.056337245
25	0xbd751b21	-0.059840325
26	0x3db0181a	0.08598347
27	0x3ea3b615	0.31974855
28	0x3ed42c40	0.4144001
29	0xbc9547f3	-0.018222785
30	0xbdbbf3d5	-0.09177367
31	0xbe564b47	-0.20927154
32	0xbe6a21a5	-0.22864397
33	0x3ddbf1b3	0.1073946
34	0x3dc50d97	0.09621733
35	0xbd74ecfb	-0.059796315
36	0xbe5395c0	-0.20662594
37	0xbdaab144	-0.08334592
38	0x3da61e29	0.08111221
39	0x3dd9d5f8	0.106365144
40	0x3db87cc2	0.09008171
41	0x3bab576a	0.0052289264
42	0xbe33c5f8	-0.17555988
43	0xbe8db11b	-0.27674183
44	0xbd8c07be	-0.06837414
45	0xbcafc071	-0.021454068
46	0xbe137598	-0.14400327
47	0xbe8d9614	-0.27653563
48	0xbddc88ee	-0.10768305
49	0xbe171d22	-0.14757207
50	0xbe4677fc	-0.19381708
51	0xbe2c2241	-0.16809942
52	0xbde05b02	-0.10954858
53	0xbe040b80	-0.12895012
54	0x3e52273a	0.20522776
55	0xbeb93bae	-0.36178344
56	0xbcbf4701	-0.023349287
57	0x3e4972cf	0.19672702
58	0xbdbc1f41	-0.09185649
59	0x3caeb0c0	0.021324515
60	0xbd8657c8	-0.06559712
61	0xbe8babba	-0.27279454
62	0x3e3e0eff	0.18560408
63	0x3bfcd8d1	0.007716276
64	0x3e1054cc	0.14094847
65	0x3e89e071	0.26929048
66	0xbe3bff57	-0.18359123
67	0xbe5ed842	-0.21762183
68	0x3da3bd38	0.07995075
69	0xbeb8b52b	-0.3607572
70	0x3ec9ac30	0.3938918
71	0xbdca4721	-0.09876848
72	0x3d918dea	0.07107146
73	0xbccd5e0a	-0.025069255
74	0x3cd49f2e	0.025954809
75	0x3e96224b	0.29323038
76	0x3db25c61	0.08709026
77	0x3e96e8fb	0.29474625
78	0xbe0cf05f	-0.1376357
79	0xbca0390f	-0.019558458
80	0x3e0eb9fe	0.13938138
81	0xbe48ed7f	-0.19621848
82	0xbdb21990	-0.08696282
83	0x3d670b05	0.056406993
84	0x3d9a218c	0.0752593
85	0x3d0fdbe8	0.03512183
86	0xbde0c700	-0.10975456
87	0xbcfac791	-0.030612739
88	0x3e8a4b1b	0.27010426
89	0xbd088357	-0.03332838
90	0x3e994e22	0.29942423
91	0xbe23153b	-0.15926068
92	0xbd9ff9c7	-0.07811313
93	0x3e118aba	0.14213076
94	0x3e651db1	0.22374608
95	0x3e57309b	0.21014635
96	0x3e9e85d4	0.30961478
97	0xbc120b93	-0.008913892
98	0xbe54336e	-0.20722744
99	0xbd76ae91	-0.060225073
100	0x3e4e64a1	0.20155574
101	0x3e49d145	0.19708736
102	0x399c1deb	0.0002977693
103	0xbe2a738e	-0.16645643
104	0x3e03714b	0.12836187
105	0xbd2268b0	-0.03965062
106	0xbe08aed4	-0.13347942
107	0xbdb58aec	-0.08864388
108	0x3d0612bc	0.03273271
109	0xbd2e54bf	-0.04256129
110	0xbe08483a	-0.13308802
111	0x3dfd2aed	0.12361703
112	0x3d1a9f49	0.037749562
113	0xbdc15413	-0.09439864
114	0xbf073ac2	-0.5282403
115	0xbe1b8628	-0.15187895
116	0xbd86cdc1	-0.06582213
117	0x3dca726c	0.098851055
118	0xbddfe17b	-0.10931679
119	0xbd8f207e	-0.06988619
120	0xbca2f1f4	-0.019890763
121	0xbe42b2dd	-0.19013543
122	0x3ea92700	0.33037567
123	0xbd72b41f	-0.059253808
124	0x3e296841	0.16543676
125	0x3e0485c4	0.12941653
126	0xbcb670d3	-0.022270596
127	0xbd408fab	-0.047012012
128	0xbd75508b	-0.059891265
129	0xbe410861	-0.18850853
130	0xbcdcf96d	-0.026974404
131	0xbd3b1da8	-0.04568258
132	0xbd17526f	-0.03694385
133	0xbe21deb5	-0.15807612
134	0xbe1fb6a0	-0.1559701
135	0x3e3ff5ba	0.18746081
136	0xbd891b9b	-0.066947185
137	0x3e9051b3	0.28187332
138	0xbe8c3efc	-0.27391803
139	0xbdba33a8	-0.09091884
140	0x3ce6bca4	0.028166123
141	0x3d8e9167	0.06961327
142	0xbd763d3e	-0.060117
143	0x3dd18599	0.1023056
144	0x3eacb04f	0.33728263
145	0x3d5ca989	0.05387262
146	0x3e919c0a	0.2843936
147	0x3cdfe2b7	0.027329786
148	0x3d739374	0.059466794
149	0xbdee96df	-0.1164987
150	0xbe754190	-0.23950791
151	0xbe156f4a	-0.14593235
152	0x3b8d9a05	0.004321339
153	0x3e7b1a2b	0.24521701
154	0x3de7a117	0.11310022
155	0x3e925ad2	0.28584915
156	0x3eba8a01	0.36433414
157	0x3e99a5fb	0.30009446
158	0x3cb8595c	0.022503547
159	0xbe0c60e4	-0.13708836
160	0xbcbff8a0	-0.023433983
161	0xbd79e005	-0.061004657
162	0xbc06cfd0	-0.008228257
163	0xbe94b220	-0.2904215
164	0xbe5af87a	-0.21383849
165	0xbdbead12	-0.09310354
166	0x3de8e1c2	0.11371185
167	0xbd96849e	-0.073495135
168	0x3e0d4579	0.13796033
169	0x3d21a3d4	0.03946288
170	0x3e438d69	0.19096912
171	0xbe10cb05	-0.14139946
172	0x3e54e7ec	0.20791596
173	0xbe02dfc6	-0.12780675
174	0xbe14d8aa	-0.14535776
175	0xbddb0aab	-0.10695394
176	0x3d0ea62a	0.034826435
177	0xbd8dc3f6	-0.06922142
178	0x3e8f007a	0.2793005
179	0xbd69268d	-0.05692153
180	0xbddde98b	-0.108355604
181	0xbd7dca7f	-0.061960693
182	0xbdea1a12	-0.11430754
183	0xbc7bb0cf	-0.015361979
184	0xbd5ded47	-0.054181363
185	0x3d893d63	0.06701162
186	0xbd92e1ca	-0.07171972
187	0xbdb0ae39	-0.0862698
188	0xbe1a68e5	-0.15079077
189	0xbc2b45d1	-0.010453657
190	0xbcff7765	-0.031184861
191	0x3e205a92	0.1565955
192	0xbd54d4fc	-0.05196093
193	0xbce5c147	-0.028046263
194	0x3e202cb5	0.15642054
195	0x3e60089d	0.21878286
196	0x3e0de7f1	0.1385801
197	0xbe4f3c51	-0.20237853
198	0xbde3f056	-0.11129825
199	0xbe7f3a6b	-0.24924628
200	0xbe554e87	-0.20830737
201	0xbe29b252	-0.1657193
202	0xbc4650d7	-0.012104235
203	0xbb4fdebd	-0.0031718456
204	0xbe0cf872	-0.1376665
205	0xbdce0824	-0.100601465
206	0xbe840701	-0.25786594
207	0xbd0c6c37	-0.03428289
208	0xbe94221e	-0.2893228
209	0xbe0722fd	-0.1319694
210	0xbc1e24a4	-0.0096522905
211	0x3db04050	0.08606017
212	0x3e112d7d	0.14177509
213	0x3ea68e2c	0.32530344
214	0xbd819e24	-0.06328991
215	0x3cd0659e	0.02543908
216	0x3ea85dd0	0.32884073
217	0xbc81afa8	-0.01583083
218	0x3e42412d	0.18970175
219	0xbdb3c28a	-0.0877734
220	0x3dcf14be	0.10111378
221	0x3e875b69	0.26436928
222	0xbd3836d0	-0.04497415
223	0xbd7dd37e	-0.061969273
224	0x3e5a03d3	0.21290521
225	0x3c8a402b	0.0168763
226	0xbe0efcf9	-0.13963689
227	0xbde306f2	-0.11085309
228	0xbc9c6cbe	-0.019094821
229	0xbe3e562f	-0.18587564
230	0xbd90b855	-0.070664085
231	0xbe1c6202	-0.15271762
232	0x3db013ac	0.08597502
233	0x3dfa362b	0.12217363
234	0xbebd8c86	-0.37021273
235	0xbbd4c2da	-0.0064929547
236	0x3e0011d2	0.12506798
237	0xbd8d3c2b	-0.06896242
238	0xbd0ade3a	-0.033903338
239	0xbe327ba4	-0.17429978
240	0x3d9b2548	0.0757547
241	0x3d439af1	0.047755186
242	0xbe31fd25	-0.17381723
243	0x3d956554	0.072947174
244	0x3e013e8a	0.12621513
245	0xbe6ab8a4	-0.22921997
246	0x3db7c2f9	0.08972735
247	0x3e452472	0.19252184
248	0xbc1a9971	-0.009435997
249	0x3e0c8496	0.13722453
250	0x3e3efcc2	0.18651107
251	0x3dbaf4d9	0.09128732
252	0xbe22510c	-0.1585123
253	0x3d4af80c	0.049552962
254	0xbca2cf5d	-0.01987427
255	0x3ca8b1c8	0.020592585

fc2.bias f4 [64]
0	0x3bda99cd	0.0066711665
1	0x3d86e493	0.06586566
2	0x3df4f49a	0.119607165
3	0x3d82f9a1	0.06395269
4	0xbdb27cb0	-0.087151885
5	0x3d6f1479	0.058369134
6	0x3e118b55	0.14213307
7	0x3d021fe4	0.031768695
8	0x3de77e55	0.11303393
9	0xbd89ed01	-0.06734658
10	0xbd16f426	-0.03685393
11	0x3db50713	0.0883924
12	0xbd42af92	-0.04753072
13	0x3d4ce4ac	0.050022766
14	0xbe18b1de	-0.14911601
15	0x3a37fdc1	0.0007018708
16	0x3de14295	0.10999028
17	0x3d190821	0.037361268
18	0x3c9f7c0f	0.019468335
19	0x3cd83e60	0.02639693
20	0xbe1fa501	-0.15590288
21	0xbda312b7	-0.07962554
22	0x3dad6826	0.0846713
23	0x3d9b3f05	0.075803794
24	0x3dfd3067	0.12362748
25	0xbc7b623a	-0.015343243
26	0xbcd4ccf7	-0.025976641
27	0x3e46b044	0.19403177
28	0x3d9626c9	0.073316164
29	0x3db04b05	0.08608059
30	0xbc1ddc54	-0.00963505
31	0xbdb88662	-0.090100065
32	0xbcffa17c	-0.031204931
33	0x3d83c454	0.06433931
34	0x3d7ae1a4	0.061250344
35	0xbd1bc320	-0.038027883
36	0xbd9ac11e	-0.075563654
37	0x3e1deeca	0.15423122
38	0xbd0cdca5	-0.03439011
39	0x3dd2a280	0.10284901
40	0x3d9942b9	0.074834295
41	0x3d1a4030	0.03765887
42	0x3d3bb51e	0.045827024
43	0x3d4f01dc	0.050538883
44	0x3d9c36a7	0.076276116
45	0x3d83e268	0.06439668
46	0x3d7fa1e9	0.06241027
47	0x3e08bbc3	0.13352875
48	0x3da0d395	0.07852856
49	0x3d9be52f	0.07612073
50	0xbdfca6f3	-0.123365305
51	0x3d52d7cf	0.051475342
52	0x3e2cd2ed	0.16877337
53	0x3d972aa3	0.07381179
54	0x3d94601e	0.072448954
55	0x3bec1ff2	0.0072059566
56	0xbd791c96	-0.060818277
57	0x3ca3ac8e	0.019979741
58	0xbe0fe80f	-0.14053367
59	0xbd9c4fdf	-0.07632422
60	0xbdf19b8a	-0.11797245
61	0xbda23411	-0.07920087
62	0x3d91eaa6	0.07124834
63	0xbd946eb1	-0.07247675

mu.weight f4 [8, 64]
0	0x3d17e9c0	0.037088156
1	0x3d5c19f7	0.0537357
2	0xbe548025	-0.20752008
3	0xbd9e7d27	-0.07738715
4	0x3dafafe6	0.08578472
5	0xbd1eb9ed	-0.03875153
6	0x3dc91c39	0.09819836
7	0xbdfa95dc	-0.12235615
8	0x3d6a598d	0.05721431
9	0x3d63cd08	0.055615455
10	0xbb87fc66	-0.0041499613
11	0xbdbd7be5	-0.09252147
12	0x3dc2a9da	0.09505053
13	0x3d5b39e0	0.05352199
14	0xbd9796d9	-0.07401819
15	0xbd480582	-0.048833378
16	0x3d5c44ad	0.05377643
17	0xba4fd7ea	-0.0007928597
18	0x3e6791e9	0.22614254
19	0x39b67fb9	0.00034808906
20	0x3be8b138	0.0071012042
21	0x3d47925c	0.048723564
22	0x3e628aa8	0.22123206
23	0xbbde836b	-0.0067905686
24	0xbcf96878	-0.030445322
25	0x3e24a6ce	0.16079256
26	0xbe04d51e	-0.12971923
27	0xbdbd9405	-0.09256748
28	0xbd2608a6	-0.04053559
29	0x3cc02ce9	0.023458915
30	0x3d303f1c	0.043028936
31	0xbbecde44	-0.0072286446
32	0x3db7d9a8	0.089770615
33	0xbd82ba3b	-0.06383177
34	0xbd0cd71e	-0.03438484
35	0xbd2f9942	-0.042870767
36	0xbd9265a3	-0.07148292
37	0xbe129aa2	-0.143168
38	0x3dcfae8b	0.10140713
39	0xbe2d2c8d	-0.16911526
40	0x3cf58cdf	0.0299744
41	0x3d69028d	0.0568872
42	0xbd4be657	-0.049780216
43	0xbce6cbbc	-0.02817332
44	0xbd32a05f	-0.043609973
45	0x3cba93c3	0.022775536
46	0xbd4e104f	-0.05030852
47	0x3e1a16d2	0.15047768
48	0xbd53db6d	-0.051722933
49	0xbdbb554a	-0.09147127
50	0x398e0aa2	0.00027092273
51	0xbd0e1ec3	-0.034697305
52	0x3e010679	0.12600125
53	0xbd834612	-0.06409849
54	0x3e3f753f	0.1869707
55	0xbdb1d462	-0.08683087
56	0x3e22d375	0.15900977
57	0xbdb432fd	-0.08798788
58	0x3d580e50	0.052748024
59	0x3d51faf3	0.051264714
60	0x3df12929	0.11775429
61	0x3da89a81	0.08232594
62	0xbdd42b69	-0.10359842
63	0x3d7a84b7	0.061161723
64	0xbdb85a04	-0.09001544
65	0xbe6ddd4b	-0.23228948
66	0xbbffb880	-0.0078039765
67	0xbd82da23	-0.063892625
68	0x3dbb3ac2	0.091420665
69	0x3d8b09f2	0.06789006
70	0x3d9ca57d	0.07648752
71	0x3e4de2d6	0.20106062
72	0xbe11745d	-0.14204545
73	0x3baa4d12	0.005197176
74	0xbdd25ade	-0.10271238
75	0x3e886c30	0.2664504
76	0x3c850ccb	0.016241452
77	0x3dfc400c	0.123169035
78	0x3e50207c	0.20324892
79	0x3cc49cd5	0.024000565
80	0xbcc4d3e1	-0.024026813
81	0x3d8cee47	0.06881385
82	0x3e0757ae	0.13217041
83	0x3d92fac3	0.07176735
84	0x3def4118	0.116823375
85	0x3c846075	0.016159276
86	0x3d6d204a	0.05789212
87	0x3d22e85f	0.039772388
88	0xbe178edb	-0.14800589
89	0x3d57a850	0.05265075
90	0xbcfa122d	-0.030526245
91	0xbd29cfe3	-0.04145802
92	0x3d88746e	0.06662832
93	0xbdedf36f	-0.11618697
94	0xbe640e1d	-0.22271009
95	0x3d9b07f7	0.075698785
96	0xbbc7b663	-0.0060947402
97	0xbdda4f1d	-0.10659621
98	0xbd35b259	-0.04435954
99	0x3d78c8d5	0.060738403
100	0x3d1a7166	0.0377058
101	0x3cd5e40b	0.026109716
102	0xbdf9a9d7	-0.121905975
103	0xbbc29f34	-0.0059393886
104	0xbd68ca97	-0.05683383
105	0x3dc38391	0.09546579
106	0xbd94aa23	-0.072590135
107	0xbbb61d21	-0.0055576717
108	0x3deb84e2	0.11499955
109	0x3d356f53	0.04429562
110	0xbda9b25d	-0.08285973
111	0xbc3c2160	-0.011482567
112	0xbd53a4fb	-0.05167101
113	0x3e0498cd	0.12948914
114	0x3e11c69c	0.1423592
115	0xbe0eb086	-0.13934526
116	0xbd75222f	-0.059847053
117	0x3dcc80e1	0.09985519
118	0xbda02c34	-0.07820931
119	0x3cfdd852	0.030986939
120	0x3e1b9fda	0.15197697
121	0x3d57aedd	0.052656997
122	0xbe43493a	-0.19070902
123	0xbd25432f	-0.040347274
124	0x3c0dd80a	0.008657465
125	0x3d5b2c9e	0.053509347
126	0x3c87083a	0.016483415
127	0xbdb51b1f	-0.088430636
128	0xbd57427a	-0.05255363
129	0x3dce100d	0.10061655
130	0x3c80dc9e	0.015730198
131	0x3d86b0a2	0.06576659
132	0xbe0e0afb	-0.13871376
133	0x3dcb025b	0.09912559
134	0x3e06a679	0.13149442
135	0x3c553728	0.013013639
136	0x3dfce8f9	0.123491235
137	0xbc777e51	-0.0151058
138	0x3dc8e1d8	0.09808701
139	0xbe2a88de	-0.16653773
140	0x3e23d785	0.16000183
141	0xbca8afdd	-0.02059167
142	0x3cd3fae2	0.025876466
143	0xbc1b87fd	-0.009492871
144	0xbd74a7a1	-0.059730176
145	0xbd8b2425	-0.067940034
146	0xbce705b3	-0.02820096
147	0x3cfbbbcc	0.030729197
148	0x3d265440	0.04060769
149	0xbcee903e	-0.029121514
150	0x3d06f37d	0.032947052
151	0xbe01abce	-0.12663195
152	0xbe214c8c	-0.15751857
153	0x3e38ef66	0.18060073
154	0x3d24c033	0.040222358
155	0x3cedcdcc	0.029028796
156	0x3d0f966a	0.035055555
157	0xbe54ef58	-0.20794427
158	0x3e797d6a	0.24364248
159	0xbc178d33	-0.009249973
160	0x3d33c52d	0.043889213
161	0x3bf13030	0.0073604807
162	0xbcfb4781	-0.030673744
163	0x3d57cb31	0.052684013
164	0x3b9d1ff4	0.004795069
165	0x3e32e369	0.17469563
166	0x3dccf99a	0.10008545
167	0x3daa69fa	0.08320995
168	0xbe6d6d69	-0.23186268
169	0x3e0c7c3f	0.13719271
170	0xbddeb37d	-0.108740784
171	0x3e59f804	0.21286017
172	0xbdeb69e5	-0.11494807
173	0xbd4b219f	-0.04959261
174	0xbd2a2ccb	-0.041546624
175	0x3e344680	0.17605019
176	0x3e3493b4	0.1763447
177	0x3d59af1c	0.053145513
178	0x3ddd3c41	0.10802508
179	0x3caf781a	0.021419574
180	0x3dfb2505	0.1226292
181	0x3e945e59	0.28978232
182	0x3d39414d	0.04522829
183	0x3b880d75	0.004151995
184	0xbe248a20	-0.16068316
185	0xbde3da8e	-0.111256704
186	0xbde03d23	-0.10949161
187	0xbbc92372	-0.0061382586
188	0x3c9dd6e3	0.019267505
189	0xbe88b180	-0.26697922
190	0x3db930e2	0.09042527
191	0xbd4a95a4	-0.049459115
192	0xbbae68fc	-0.0053225737
193	0xbe016a9d	-0.12638326
194	0x3aac0003	0.0013122562
195	0xbda5d666	-0.08097534
196	0x3b8916f0	0.0041836426
197	0x3e47ec26	0.19523677
198	0xbcb093e4	-0.021554895
199	0xbd76de17	-0.060270395
200	0x3da09162	0.078402296
201	0x3e1dbc05	0.15403755
202	0x3e76a09e	0.24084708
203	0xbd95e540	-0.073191166
204	0x3d9777db	0.073959075
205	0xbbf3751b	-0.0074297315
206	0x3e1f83b0	0.15577579
207	0x3d7fbe89	0.062437568
208	0xbcac749f	-0.021051703
209	0xbc91754a	-0.017756123
210	0xbd2c705f	-0.042099353
211	0x3cbaf4dc	0.022821836
212	0x3d99b70a	0.07505615
213	0x3d100a76	0.035166226
214	0x3df30aab	0.11867269
215	0x3de7e357	0.113226585
216	0x3dcda918	0.10042018
217	0xbc959c95	-0.01826314
218	0xbbffa6b7	-0.0078018564
219	0xbcfc38c6	-0.03078879
220	0x3dfb179c	0.122603625
221	0xbdbe9542	-0.093058124
222	0xbd9c35ed	-0.07627473
223	0xbdfdfe7f	-0.12402057
224	0x3cbc523c	0.022988431
225	0xbdf33a89	-0.11876399
226	0xbda456a9	-0.080243416
227	0xbd812f6c	-0.06307873
228	0xbd976f38	-0.0739426
229	0xbe7d15a8	-0.24715292
230	0x3e6735c8	0.2257911
231	0x3dc4583f	0.09587144
232	0xbd8c7c97	-0.06859701
233	0xbd7a7f56	-0.061156593
234	0x3c0f6207	0.008751399
235	0x3e862307	0.261986
236	0x3dbbfb1a	0.09178753
237	0x3dfb6d9c	0.12276766
238	0x3e84129f	0.25795457
239	0x3db166fd	0.086622216
240	0x3cd3dc76	0.02586196
241	0xbd4eec50	-0.050518334
242	0xbca0304c	-0.01955428
243	0xbd34ce1a	-0.044141866
244	0x3d9fe9f0	0.07808292
245	0x3c28ec4f	0.010310247
246	0x3c5fcd20	0.013659745
247	0x3e4b3a0a	0.19846359
248	0xbd88cb96	-0.06679456
249	0x3d035945	0.032067556
250	0x3dd5db76	0.104422495
251	0x3d20bb0b	0.039240878
252	0x3da95c2a	0.08269532
253	0xbde58ec4	-0.11208871
254	0xbc2c4c74	-0.010516275
255	0x3e0e8d08	0.13920987

mu.bias f4 [8]
0	0xbddd7c04	-0.1081467
1	0xbdaa4834	-0.08314553
2	0x3cb5cb29	0.0221916
3	0xbd3bfe0f	-0.045896586
4	0xbc351020	-0.011051208
5	0x3b861a17	0.0040924656
6	0x3d075881	0.03304339
7	0x3d4bbf22	0.049742825

fc1.weight f4 [64, 111]
0	0x3ef25baf	0.47335574
1	0xbe1cc059	-0.1530775
2	0xbf147834	-0.57995915
3	0xbe58c600	-0.21169281
4	0xbfb46edb	-1.409633
5	0x3edb0da1	0.42783836
6	0x3e4c166c	0.19930428
7	0x3e0a04c7	0.13478385
8	0xbe7ebd35	-0.24876864
9	0xbd8d969b	-0.06913491
10	0xbef17b3c	-0.47164333
11	0xbdafcfd8	-0.08584565
12	0x3e9f5dc0	0.31126213
13	0xbe4f9159	-0.2027029
14	0xbeab356a	-0.3343919
15	0x3e62a8c8	0.22134697
16	0xbe2c58e3	-0.16830783
17	0xbd6520d0	-0.055939496
18	0x3e96573b	0.29363427
19	0x3d2ddf95	0.042449553
20	0xbc90ade0	-0.017661035
21	0x3d5a8fb4	0.053359702
22	0x3db22c8d	0.08699904
23	0xbd215147	-0.039384153
24	0xbd182f5f	-0.03715455
25	0xbc1a0fea	-0.009403208
26	0xbd56c3e7	-0.05243292
27	0xbd01fa96	-0.031733118
28	0x3cba6e92	0.022757802
29	0xbdd31d05	-0.103082694
30	0xbbc61c88	-0.0060458817
31	0xbdcb3c10	-0.099235654
32	0x3c70a2f6	0.01468729
33	0xbe1fe02f	-0.15612863
34	0xbceefc79	-0.029173123
35	0x3db6a295	0.08917729
36	0x3dab4e95	0.08364598
37	0xbdd5dae9	-0.104421444
38	0xbc236c3a	-0.009974534
39	0x3e215a72	0.15757158
40	0x3e5d6b28	0.21622908
41	0x3daba3bc	0.08380839
42	0x3d88e666	0.0668457
43	0x3d731767	0.05934849
44	0xbcfe4cdb	-0.031042507
45	0xbc8d282e	-0.017231073
46	0xbda4ead1	-0.080526
47	0x3dd6bc5c	0.104851454
48	0xbd503203	-0.050828945
49	0xbd6f09d3	-0.05835898
50	0xbbab7be2	-0.005233274
51	0x3dca7c01	0.09886933
52	0x3dd7b647	0.105328135
53	0x3e2f4b4b	0.17118566
54	0xbc8e3a63	-0.017361825
55	0xbd775e69	-0.06039277
56	0xbda77631	-0.0817684
57	0xbda1c2e1	-0.07898498
58	0x3d090600	0.033452988
59	0x3c8c843e	0.017152902
60	0x3cb79f3d	0.022414798
61	0x3e07f212	0.13275936
62	0xbd9e5c62	-0.077324644
63	0xbd492a7f	-0.049112793
64	0x3bfa4166	0.0076371906
65	0xbe1fe75a	-0.15615597
66	0xbdbd8317	-0.09253519
67	0xbd8954c3	-0.0670562
68	0x3d85781d	0.065170504
69	0xbe67813c	-0.22607893
70	0x3d86e5c9	0.06586797
71	0xbdedd9a6	-0.11613779
72	0x3df4baef	0.11949717
73	0x3d0ba3e0	0.03409183
74	0x3daeafee	0.0852965
75	0x3c460a12	0.012087362
76	0x3e4c122f	0.19928811
77	0x3d685437	0.05672094
78	0xbe284e1b	-0.16436045
79	0x3e2cc874	0.16873342
80	0x3d5e8a05	0.054330844
81	0x3ce97d43	0.028502112
82	0xbdefbc08	-0.11705786
83	0x3ce57cc7	0.0280136
84	0xbadf2216	-0.0017023708
85	0x3e31effe	0.17376706
86	0x39cd55f4	0.00039164687
87	0xbb75b433	-0.003749144
88	0x3d2243f5	0.03961559
89	0xbdc415eb	-0.09574493
90	0x3d96e3e0	0.073676825
91	0xbc32e9b5	-0.010919978
92	0x3cf25309	0.02958061
93	0x3de32b06	0.110921904
94	0x3d8bc54a	0.06824739
95	0xbd49d40c	-0.04927449
96	0x3e4821e2	0.19544175
97	0xbdd2eb1d	-0.102987505
98	0x3c27e266	0.010246849
99	0xbd7e426f	-0.062075075
100	0xbdbe10b0	-0.09280527
101	0xbca95ebe	-0.02067506
102	0xbc95fdcd	-0.018309498
103	0x3e1e5e8a	0.15465751
104	0xbd63a93d	-0.05558132
105	0x3dca14ba	0.098672345
106	0x3d89a2a1	0.06720472
107	0x3c935ea7	0.01798947
108	0x3d0e4e60	0.034742713
109	0x3d9d6093	0.07684436
110	0xbe48803b	-0.19580166
111	0x3f585ee3	0.84519786
112	0xbe1efb3d	-0.15525527
113	0x3e9dd39f	0.30825517
114	0xbdd1ae6a	-0.10238345
115	0x3f1e6637	0.6187472
116	0xbc78332a	-0.015148917
117	0x3eaddf3c	0.33959377
118	0xbd5bdfcf	-0.053680237
119	0x3eabddc2	0.33567625
120	0x3e860e1c	0.2618264
121	0x3db6ccfd	0.08925817
122	0x3eaddfc9	0.33959797
123	0xbe3f28e5	-0.18667944
124	0xbd7399a9	-0.059472714
125	0xbe93327f	-0.28749463
126	0x3e550b3c	0.20805067
127	0xbd0386bc	-0.032110915
128	0x3e421d64	0.18956524
129	0x3e86ed83	0.26353082
130	0x3e3d518f	0.18488143
131	0x3c40071b	0.011720444
132	0x3e370886	0.17874345
133	0x3cfd08c2	0.030887965
134	0x3d167b28	0.036738545
135	0xbd24e671	-0.04025883
136	0x3cf025f0	0.029314965
137	0x3d9ec327	0.07752066
138	0xbd9771fa	-0.07394786
139	0x3d81ed29	0.06344063
140	0x3e0bb7b1	0.13644291
141	0xbd3f3ad8	-0.046686977
142	0xbe0fac5c	-0.14030594
143	0xbc10014d	-0.008789373
144	0x3de36fce	0.111053094
145	0xbb9605a9	-0.0045783115
146	0xbd3d928b	-0.046282332
147	0xbe219dd1	-0.15782858
148	0x3dbaa53c	0.09113547
149	0x3daaf7bd	0.083480336
150	0x3dc8ab3d	0.09798286
151	0x3e1d32f2	0.15351465
152	0x3dffeab5	0.12495939
153	0xbd03053c	-0.031987414
154	0x3dcd0157	0.10010021
155	0x3d21fe37	0.03954908
156	0xbd72e03d	-0.05929588
157	0xbcd9023c	-0.026490323
158	0x3806cb74	3.213757e-05
159	0xbca8d4fe	-0.020609375
160	0x3d61fbb4	0.055171683
161	0x3e801f44	0.25023854
162	0xbd59fda5	-0.05322041
163	0xbdc3a4ec	-0.09552941
164	0xbe2a481e	-0.16629073
165	0x3e369101	0.17828752
166	0xbddd2c7c	-0.107995
167	0xbd87c103	-0.06628611
168	0xbd3ff3d6	-0.0468634
169	0xbe150d85	-0.14555939
170	0x3c897168	0.01677771
171	0xbe00e503	-0.12587361
172	0xbd7fad0f	-0.0624209
173	0xbd82e980	-0.06392193
174	0xbd6a268b	-0.057165664
175	0xbdd1ce23	-0.102443956
176	0x3d4bcc2d	0.049755264
177	0x3bf1dc14	0.0073809717
178	0x3dc625c1	0.0967517
179	0xbe42846a	-0.18995824
180	0x3d0fa02c	0.03506486
181	0x3bb45cdf	0.005504235
182	0x3debe720	0.11518693
183	0x3c93c603	0.018038755
184	0x3e1bfbe4	0.15232807
185	0xbdf70b91	-0.12062753
186	0x3d9371bb	0.07199427
187	0x3dc42c15	0.095787205
188	0x3cec56c8	0.028849974
189	0x3cc609f1	0.024174662
190	0xbd99f26a	-0.0751694
191	0xbd2ca6b3	-0.042151164
192	0x3d1b9ab6	0.03798934
193	0x3d6ccb61	0.057811145
194	0x3ca10e37	0.019660098
195	0x3e0d1034	0.13775712
196	0x3d606bf8	0.054790467
197	0xbc93ed31	-0.018057438
198	0xbd9d99af	-0.076953284
199	0x3c07610f	0.008262887
200	0x3d4319aa	0.047631897
201	0x3dab8dc0	0.08376646
202	0x3cced797	0.025249286
203	0x3b247610	0.0025094785
204	0x3db36da0	0.08761144
205	0xbe0c194f	-0.1368153
206	0x3dac1c4a	0.08403833
207	0x3d65b31d	0.05607902
208	0xbd99e302	-0.075140014
209	0xbe1e2afa	-0.15446082
210	0xbe34e9bf	-0.17667292
211	0x3d1f892d	0.03894918
212	0x3c69625b	0.014244641
213	0xbe344da3	-0.17607741
214	0x3d43a7b2	0.04776735
215	0xbe6e9a33	-0.2330101
216	0x3d0480f6	0.03234955
217	0xbde75556	-0.112955734
218	0xbd526fc3	-0.051376116
219	0xbdf3ea33	-0.11909904
220	0x3d0285b5	0.031865794
221	0x3d8645e0	0.06556296
222	0x3e8e12cb	0.27748713
223	0x3dbdd443	0.09269001
224	0x3cf71470	0.030161113
225	0xbed26883	-0.4109536
226	0x3f15fa4a	0.58585036
227	0x3c6e3e24	0.014541183
228	0x3e20bcb7	0.15696989
229	0x3c3ced9a	0.011531258
230	0x3dd5775e	0.10423158
231	0xbd079c15	-0.033107836
232	0x3dbba905	0.09163097
233	0xbd9490de	-0.07254194
234	0xbe1a5e87	-0.15075122
235	0x3ebeedd8	0.37290835
236	0x3e6385aa	0.22218958
237	0x3e316668	0.17324221
238	0xbe342560	-0.17592382
239	0xbe1f3ac1	-0.15549757
240	0x3da2e0c5	0.07953028
241	0xbd946a0e	-0.07246791
242	0x3c29a658	0.010354601
243	0x3c2feb9a	0.010737324
244	0x3ad107bc	0.001594774
245	0x3d8902ed	0.06690011
246	0x3be8950f	0.0070978473
247	0x3dc1b476	0.09458248
248	0xbe49f638	-0.19722831
249	0x3a93c71c	0.0011274549
250	0xbd456a4f	-0.048197087
251	0xbd53f8fc	-0.051751122
252	0x3dea0228	0.114261925
253	0xbd47546b	-0.04866449
254	0x3d623e7c	0.05523537
255	0x3e1b3786	0.151579

fc1.bias f4 [64]
0	0xbe94fa0c	-0.2909702
1	0xbf2c55b6	-0.67318285
2	0xbfa0201a	-1.2509797
3	0x3e311ea5	0.17296846
4	0x3e8bb84c	0.27289045
5	0xbf782f76	-0.9694742
6	0x3f974177	1.1816853
7	0x3f8a7de0	1.0819664
8	0xbf463a73	-0.77432936
9	0xbf2ef5d2	-0.6834384
10	0x3c0f6782	0.0087527055
11	0xbee069c9	-0.43830708
12	0x3e224f03	0.15850453
13	0xbedb9581	-0.428875
14	0xbefcfeac	-0.4941305
15	0x3ebae4a7	0.36502573
16	0xbf8e17a0	-1.110096
17	0x3f90b203	1.1304325
18	0x3e9023fd	0.28152457
19	0xbef63224	-0.4808513
20	0xbf02ca97	-0.5109038
21	0x3ec2eb17	0.38069984
22	0xbeeb050e	-0.45902294
23	0x3f30761f	0.6893024
24	0x3e76a1ab	0.24085109
25	0xbefe1891	-0.49628118
26	0xbfbeefed	-1.491697
27	0x3ecb0be9	0.39657524
28	0x3f73357f	0.95003504
29	0xbeb45c39	-0.3522661
30	0x3f171d19	0.59028774
31	0x3e7364ab	0.2376887
32	0xbfb34cb6	-1.4007785
33	0xbf6254c1	-0.88410574
34	0xbe21f9ee	-0.15817997
35	0xbe31e748	-0.17373383
36	0xbf40e3ae	-0.7534741
37	0xbe58083e	-0.21096894
38	0x3e98bfc5	0.2983381
39	0x3e98923b	0.29799065
40	0xbf3c64af	-0.7359113
41	0x3dd42802	0.103591934
42	0xbef59994	-0.47968733
43	0xbf775f11	-0.96629435
44	0xbf8a87f9	-1.0822746
45	0x3f1a3e8d	0.60251695
46	0xbf26274a	-0.649037
47	0x3e9a36f2	0.30120045
48	0xbf6be3e1	-0.9214459
49	0xbf9197ec	-1.1374488
50	0xbea80dbe	-0.32822984
51	0x3eb434fa	0.35196668
52	0xbf278627	-0.65439075
53	0x3e368c01	0.17826845
54	0x3f3cfe2c	0.73825336
55	0xbf9f2a1b	-1.2434725
56	0x3fdd2900	1.7278137
57	0x3f18460f	0.594819
58	0xbd7c78a6	-0.061638497
59	0xbeaf7e25	-0.34275928
60	0xbef04a70	-0.4693179
61	0x3f618d16	0.88105905
62	0xbe537db7	-0.20653425
63	0x3f894c5f	1.0726432

fc2.weight f4 [64, 64]
0	0xbdf46060	-0.119324446
1	0xbebf5b57	-0.37374374
2	0xbd870e13	-0.06594481
3	0xbf066f18	-0.52513266
4	0x3ee3d72a	0.44500095
5	0xbea45100	-0.32093048
6	0x3e9ed270	0.31019926
7	0x3f5c4355	0.8604024
8	0x3f0b7e17	0.5448927
9	0x3f4122a1	0.75443465
10	0x3ea742a8	0.32668042
11	0x3e9616f0	0.29314375
12	0xbd90c61c	-0.07069036
13	0x3aa3d5cb	0.0012499628
14	0xbf1979b9	-0.5995136
15	0xbdbc7f19	-0.092039295
16	0xbe84a454	-0.25906622
17	0x3ef417df	0.47674462
18	0x3e6fb13e	0.23407456
19	0x3ee76f7c	0.45202243
20	0xbf628ca0	-0.88495827
21	0x3d9c493a	0.07631154
22	0x3f1a5f29	0.6030145
23	0x3f173664	0.5906737
24	0xbd32d08a	-0.04365591
25	0xbe29d68c	-0.1658575
26	0xbf33ddb8	-0.7026019
27	0x3eda019d	0.42579356
28	0x3e4a8106	0.19775781
29	0xbf7b9113	-0.9826824
30	0xbdcf37c3	-0.101180576
31	0xbedf1bbf	-0.43575856
32	0xbf5ca14a	-0.8618361
33	0x3f2a01a0	0.6640873
34	0x3f41a820	0.75647163
35	0x3f0b5f68	0.54442453
36	0xbf8ec1af	-1.1152858
37	0x3f32c292	0.6982814
38	0x3e00d685	0.12581833
39	0x3e79edc9	0.24407114
40	0xbee11198	-0.43958735
41	0x3d90e487	0.07074838
42	0xbf2f3ce8	-0.6845231
43	0xbec3a41c	-0.38211143
44	0x3d1e6fad	0.03868072
45	0x3eb0a5ad	0.345014
46	0x3f0f19b5	0.558986
47	0x3f019957	0.50624603
48	0xbee87b2c	-0.45406473
49	0x3e237f57	0.15966545
50	0xbf064161	-0.5244351
51	0xbe841ff5	-0.2580563
52	0xbee184d0	-0.4404664
53	0x3f410877	0.7540354
54	0x3ec95cc2	0.3932858
55	0xbe0a9f9c	-0.13537449
56	0x3f445f4a	0.767079
57	0x3f4feaa0	0.81217384
58	0x3e9a1cc3	0.30100068
59	0x3f3beb51	0.7340594
60	0x3eaafee4	0.3339759
61	0x3eb896b8	0.3605249
62	0xbf022036	-0.508304
63	0x3def2764	0.11677435
64	0x3f61af56	0.88158166
65	0xbe02291d	-0.12710996
66	0xbf11be4f	-0.5693101
67	0xbe888c49	-0.2666953
68	0xbdd54857	-0.10414188
69	0xbf0a7454	-0.5408375
70	0x3e4f98b1	0.20273091
71	0x3f25ff43	0.64842623
72	0x3f4335b2	0.7625381
73	0x3fb18229	1.3867847
74	0xbf1592b6	-0.5842699
75	0x3ebd103e	0.36926454
76	0x3d7bd5b0	0.061483085
77	0x3e7c95cf	0.24666522
78	0x3f102579	0.5630718
79	0x3f32a258	0.69778967
80	0x3ecb0295	0.39650407
81	0xbec690a9	-0.38782242
82	0x3f8875c3	1.0660938
83	0x3e0039e1	0.12522079
84	0xbe91cd6e	-0.28477043
85	0x3d81b198	0.063327014
86	0x3f61936a	0.8811556
87	0xbf49cc50	-0.7882738
88	0x3ef2d1ef	0.47425792
89	0xbedb5a56	-0.42842358
90	0x3e17f5b4	0.14839822
91	0x3eaa3f7a	0.33251554
92	0x3f07619e	0.52883327
93	0x3f472218	0.777864
94	0xbe0f5c54	-0.14000064
95	0x3f6c9ecf	0.9242982
96	0x3eafbc50	0.3432336
97	0xbdb5f5c9	-0.088847704
98	0x3efa0ad3	0.48836383
99	0xbe80b4c4	-0.25137913
100	0x3f80cb5a	1.0062058
101	0x3f24c6d3	0.6436588
102	0xbea9a166	-0.3313095
103	0xbfab5e09	-1.3388072
104	0x3f18c6c3	0.59678286
105	0x3f2af591	0.66780955
106	0x3efa3acd	0.48872986
107	0x3f00ec0a	0.5036017
108	0xbf187fac	-0.5956981
109	0x3e1b50a5	0.15167482
110	0x3f67e9ab	0.90590924
111	0x3ef7da42	0.48408705
112	0xbed12b45	-0.40853325
113	0x3f235bdc	0.6381204
114	0x3e91ab82	0.28451163
115	0xbf6012d3	-0.87528723
116	0xbf8f160a	-1.1178601
117	0x3ea9607d	0.33081427
118	0xbec0f85a	-0.37689477
119	0xbc25fd00	-0.010131121
120	0x3e065514	0.13118392
121	0x3f067e7e	0.5253676
122	0x3f040780	0.51573944
123	0x3f7b24c3	0.9810297
124	0x3ee6d134	0.45081484
125	0xbd13b6f4	-0.03606315
126	0xbe135351	-0.14387251
127	0xbf8a9081	-1.0825349
128	0x3f4990b9	0.78736454
129	0x3f084db4	0.53243566
130	0x3edae047	0.42749235
131	0xbec505d2	-0.38481003
132	0xbdcf939a	-0.10135575
133	0xbe593734	-0.21212465
134	0xbeb9634f	-0.3620858
135	0xbef4c865	-0.4780914
136	0x3f15a62e	0.58456695
137	0x3fbe9966	1.4890563
138	0x3ed82f87	0.4222376
139	0x3f3ba9a3	0.7330572
140	0xbf262036	-0.648929
141	0x3ec00416	0.37503117
142	0xbe9556bc	-0.29167736
143	0xbda98ddc	-0.08279011
144	0x3da4bd2f	0.080438964
145	0xbef1a63d	-0.47197142
146	0x3f1d0a3b	0.61343735
147	0x3f14922f	0.5803556
148	0xbf04a45c	-0.5181329
149	0x3e7fd97c	0.24985307
150	0x3f8544be	1.0411603
151	0xbec2d57f	-0.3805351
152	0xbec751c7	-0.3892958
153	0x39d74218	0.0004105724
154	0x3ee8f500	0.4549942
155	0x3d77bbc7	0.060481813
156	0xbe25d67c	-0.161951
157	0x3e91a160	0.28443432
158	0xbf0e9e42	-0.5571023
159	0x3d90b4d9	0.07065744
160	0x3f8497c3	1.0358814
161	0x3f58198f	0.84414
162	0x3f8cb396	1.0992305
163	0xbec0ddf6	-0.37669343
164	0x3f75554a	0.95833266
165	0x3f53ca04	0.82730126
166	0xbe624285	-0.22095688
167	0xbf3528de	-0.70765483
168	0x3ea6ac57	0.3255336
169	0x3f067d15	0.5253461
170	0x3f0c7534	0.5486634
171	0x3f26bc27	0.6513085
172	0xbe313a20	-0.17307329
173	0xbdd6b74b	-0.10484179
174	0x3eeea9f1	0.4661403
175	0x3ec3969a	0.38200837
176	0xbf226d4d	-0.6344803
177	0x3f7171bd	0.94314176
178	0xbf06cb0f	-0.5265359
179	0xbf7411e2	-0.95339787
180	0xbe468c13	-0.19389372
181	0x3f0a8161	0.54103667
182	0xbdbefd6b	-0.093256794
183	0x3f383e51	0.7197009
184	0xbf63872c	-0.8887813
185	0x3f365ff3	0.71240157
186	0xbf054a26	-0.52066267
187	0x3f852607	1.040223
188	0x3f5761ed	0.841338
189	0x3e7aca3e	0.24491212
190	0xbf400e0b	-0.7502143
191	0xbf923ea4	-1.1425366
192	0xbf830967	-1.0237244
193	0x3c7b5ac3	0.0153414635
194	0x3e833e4e	0.25633472
195	0x3e9013ca	0.28140098
196	0x3e772f83	0.24139218
197	0x3edb4ac3	0.42830476
198	0xbe9f41a7	-0.31104776
199	0xbe4ece36	-0.2019585
200	0xbeee3d60	-0.465312
201	0xbfaca406	-1.3487556
202	0x3de98961	0.11403156
203	0xbeb7e8c6	-0.3591978
204	0x3e970315	0.2949454
205	0xbf03166c	-0.5120609
206	0xbebb518b	-0.3658565
207	0xbf0e7c86	-0.5565876
208	0xbd8173a6	-0.06320886
209	0xbc307c40	-0.010771811
210	0xbf5d92dd	-0.8655222
211	0xbf057f2a	-0.5214716
212	0x3ea7c966	0.32770842
213	0x3ea6a3a2	0.32546717
214	0xbf7fa75a	-0.99864733
215	0x3f1b977b	0.60778016
216	0xbca2f914	-0.01989416
217	0x3e631e49	0.22179522
218	0xbe9005d7	-0.28129455
219	0xbd8258e4	-0.06364611
220	0xbd53beb8	-0.051695555
221	0xbed6e0c1	-0.4196835
222	0x3f1f5ef5	0.6225427
223	0xbf3a5beb	-0.72796506
224	0x3de57129	0.11203224
225	0xbe93da7d	-0.2887763
226	0xbf64c020	-0.8935566
227	0x3ec49873	0.3839756
228	0xbf3c81d3	-0.73635596
229	0xbf6d0c1c	-0.925966
230	0x3ede15f7	0.43376133
231	0x3f855b58	1.0418501
232	0xbf2e1d25	-0.6801322
233	0xbeba7596	-0.36417836
234	0xbe4a842b	-0.1977698
235	0xbeab94d0	-0.33511972
236	0x3eaa8fa2	0.33312708
237	0xbdb6940b	-0.08914956
238	0xbf458aca	-0.771649
239	0xbec65062	-0.38733202
240	0x3f7e806f	0.99414724
241	0xbf44abb1	-0.7682448
242	0x3e2f2715	0.17104752
243	0x3f58f426	0.8474754
244	0x3ea665f5	0.32499662
245	0xbf15cc02	-0.58514416
246	0x3f09e8cc	0.53870845
247	0xbedfa442	-0.43680006
248	0x3e2d6f47	0.1693698
249	0xbea88490	-0.32913637
250	0x3ebf1ec9	0.37328175
251	0xbf8d8150	-1.1055088
252	0xbf0aa227	-0.54153675
253	0x3f441bbc	0.7660482
254	0x3ef7ff2a	0.48436862
255	0x3f79451c	0.9737108

fc2.bias f4 [64]
0	0x3ec9f6b8	0.39446044
1	0x3f4b7c5b	0.79486626
2	0xbe8762e8	-0.26442647
3	0xbe11dd18	-0.14244497
4	0x3eea3e3a	0.457506
5	0xbe8a3d51	-0.26999906
6	0xbe6d10e3	-0.23150973
7	0xbd238e7d	-0.03993081
8	0xbd859ecc	-0.06524429
9	0x3c937ecd	0.0180048
10	0x3e251449	0.1612102
11	0x3e4623fd	0.19349666
12	0xbebfff8b	-0.3749965
13	0xbed68c26	-0.419038
14	0x3e750c2d	0.23930426
15	0x3ea4ad30	0.32163382
16	0xbdf89f39	-0.12139744
17	0xbdccc4e7	-0.09998494
18	0x3ddd1824	0.1079562
19	0x3f121b23	0.5707266
20	0xbea82f57	-0.32848617
21	0x3d6acc5d	0.057323802
22	0x3ec05dfd	0.37571707
23	0xbf0bdf17	-0.54637283
24	0x3e1526a8	0.14565527
25	0xbeadee0c	-0.33970678
26	0x3e9d8d20	0.30771732
27	0xbcdc50d6	-0.026894014
28	0x3e4be9c8	0.19913399
29	0xbf11b504	-0.5691683
30	0xbe78fc3d	-0.24314971
31	0x3e20c7da	0.15701237
32	0x3e4a71b2	0.19769934
33	0xbe30faa5	-0.17283113
34	0x3e2520d2	0.16125801
35	0xbe438f76	-0.19097695
36	0xbdbb152f	-0.091349
37	0xbdee5275	-0.11636821
38	0xbe3737bd	-0.17892356
39	0x3dd0ff4c	0.10204944
40	0x3e535bb9	0.20640458
41	0x3e911ae8	0.2834084
42	0x3ead6a1c	0.33870018
43	0xbea0dff4	-0.31420863
44	0x3ebdcc7c	0.37070072
45	0x3d55e028	0.052215725
46	0x3e74c639	0.23903741
47	0xbebd9e49	-0.37034824
48	0xbed44286	-0.41457003
49	0x3eebf867	0.46087953
50	0x3e676bd6	0.2259973
51	0x3e1e4df3	0.15459423
52	0x3f14196e	0.578513
53	0x3eed7e3a	0.46385366
54	0xbd9770a0	-0.073945284
55	0xbf28da1f	-0.65957826
56	0xbe036fdd	-0.12835641
57	0xbe4b9027	-0.19879209
58	0x3cb57be7	0.022153808
59	0xbdf6237b	-0.12018486
60	0x3e0c02b5	0.13672908
61	0xbd340e49	-0.043958936
62	0x3f2d717d	0.67751294
63	0xbd2e76d3	-0.04259379

value.weight f4 [1, 64]
0	0x40a1d664	5.0574207
1	0xc09cd53c	-4.9010296
2	0xc0a71ead	-5.2224946
3	0x408f2ca4	4.4741993
4	0x40a11e65	5.0349603
5	0xc0a627fd	-5.1923814
6	0xc0a3d4b7	-5.119716
7	0xc092d3bd	-4.588347
8	0x4092ce8d	4.5877137
9	0x408c7794	4.389597
10	0x409809aa	4.7511797
11	0x409b9912	4.8624353
12	0xc0a18ec0	-5.0486755
13	0x409ae988	4.841007
14	0x40935f74	4.605402
15	0x40b2fe03	5.5935073
16	0x408e1a2c	4.440695
17	0x4096dc9e	4.714431
18	0x40a2dcbd	5.0894456
19	0xc0b08169	-5.515797
20	0xc093c58b	-4.617864
21	0xc09a227a	-4.8167086
22	0x40990d8c	4.7829037
23	0xc0ab64d2	-5.356057
24	0x40a24a6f	5.071586
25	0xc0acb62f	-5.397239
26	0x40a1d528	5.05727
27	0xc09b30e1	-4.8497167
28	0x409cb9d6	4.897685
29	0x40a52668	5.1609383
30	0xc08a9890	-4.3311234
31	0x40a23a37	5.0696063
32	0x40939e49	4.613072
33	0xc0889f77	-4.269466
34	0x40ac4861	5.3838353
35	0xc0840a3f	-4.1262507
36	0x409cf093	4.904367
37	0xc0930509	-4.5943646
38	0xc0b2c861	-5.5869603
39	0xc0cab784	-6.334902
40	0x40cb1491	6.3462605
41	0x4098316a	4.756032
42	0x409dc3c6	4.930148
43	0x41047cde	8.280485
44	0x40a29b94	5.0814915
45	0xc08ede60	-4.4646454
46	0x40a722d8	5.2230034
47	0xc0a01ad3	-5.0032744
48	0xc0beb79a	-5.9599123
49	0x40a1b5af	5.053428
50	0x409da8cb	4.9268546
51	0xc0b02262	-5.504197
52	0xc0aba7bf	-5.364227
53	0x40aff7b9	5.4989896
54	0xc0a5c94f	-5.180824
55	0x409e0ba2	4.93892
56	0x40947a07	4.639896
57	0xc09a8ba0	-4.829544
58	0x4099a4d8	4.8013725
59	0xc0932705	-4.598513
60	0xc097265b	-4.723432
61	0xc09a6251	-4.8245015
62	0xc09f1242	-4.9709787
63	0xc0938e40	-4.6111145

exp_avg f4 [1, 8]
0	0xbba5acb2	-0.0050559873
1	0x3c2a8fc7	0.010410256
2	0x3c04ab79	0.008097523
3	0xbb172e7b	-0.0023068476
4	0x39ce284c	0.00039321405
5	0xbb9f89e2	-0.004868732
6	0x3ba67f3c	0.0050810855
7	0x3c39b63c	0.011334952

exp_avg_sq f4 [1, 8]
0	0x39f51f2d	0.0004675327
1	0x3a791933	0.0009502351
2	0x39f2729f	0.00046243236
3	0x39c6f53f	0.00037948226
4	0x3a007732	0.0004900574
5	0x39f2f0f8	0.00046337373
6	0x39d9f197	0.00041569464
7	0x39fe3b67	0.00048490913

exp_avg f4 [64, 111]
0	0xba350ae4	-0.0006906225
1	0xbb0c0f55	-0.0021371443
2	0xba004859	-0.0004893593
3	0x39864534	0.00025610032
4	0x39ef65d4	0.000456615
5	0xba878c87	-0.0010341563
6	0xbb140983	-0.0022588677
7	0x3b997fe8	0.004684437
8	0x3a935753	0.0011241235
9	0x39a23f65	0.0003094628
10	0x3a49afe0	0.0007693749
11	0x3a94a8b0	0.0011341777
12	0xbb09dd1d	-0.0021036335
13	0x39d1088e	0.0003986996
14	0xbb8273a4	-0.0039810706
15	0xb96266c6	-0.00021591326
16	0x3c0fe29f	0.008782058
17	0x3ae5ecf1	0.0017541928
18	0x3bdec23a	0.006798056
19	0xbb81b1d3	-0.003957966
20	0xbb02803a	-0.0019912855
21	0xbc506b16	-0.012720844
22	0xba3b88c2	-0.00071538624
23	0xbbad98e8	-0.005297769
24	0xbb2e58e0	-0.0026603267
25	0xbb5c4da3	-0.003361561
26	0xbbcedc27	-0.0063128653
27	0x00000000	0.0
28	0x00000000	0.0
29	0x00000000	0.0
30	0x00000000	0.0
31	0x00000000	0.0
32	0x00000000	0.0
33	0x00000000	0.0
34	0x00000000	0.0
35	0x00000000	0.0
36	0x00000000	0.0
37	0x00000000	0.0
38	0x00000000	0.0
39	0x00000000	0.0
40	0x00000000	0.0
41	0x00000000	0.0
42	0x00000000	0.0
43	0x00000000	0.0
44	0x00000000	0.0
45	0x00000000	0.0
46	0x00000000	0.0
47	0x00000000	0.0
48	0x00000000	0.0
49	0x00000000	0.0
50	0x00000000	0.0
51	0x00000000	0.0
52	0x00000000	0.0
53	0x00000000	0.0
54	0x00000000	0.0
55	0x00000000	0.0
56	0x00000000	0.0
57	0x00000000	0.0
58	0x00000000	0.0
59	0x00000000	0.0
60	0x00000000	0.0
61	0x00000000	0.0
62	0x00000000	0.0
63	0x00000000	0.0
64	0x00000000	0.0
65	0x00000000	0.0
66	0x00000000	0.0
67	0x00000000	0.0
68	0x00000000	0.0
69	0x00000000	0.0
70	0x00000000	0.0
71	0x00000000	0.0
72	0x00000000	0.0
73	0x00000000	0.0
74	0x00000000	0.0
75	0x00000000	0.0
76	0x00000000	0.0
77	0x00000000	0.0
78	0x00000000	0.0
79	0x00000000	0.0
80	0x00000000	0.0
81	0x00000000	0.0
82	0x00000000	0.0
83	0x00000000	0.0
84	0x00000000	0.0
85	0x00000000	0.0
86	0x00000000	0.0
87	0x00000000	0.0
88	0x00000000	0.0
89	0x00000000	0.0
90	0x00000000	0.0
91	0x00000000	0.0
92	0x00000000	0.0
93	0x00000000	0.0
94	0x00000000	0.0
95	0x00000000	0.0
96	0x00000000	0.0
97	0x00000000	0.0
98	0x00000000	0.0
99	0x00000000	0.0
100	0x00000000	0.0
101	0x00000000	0.0
102	0x00000000	0.0
103	0x00000000	0.0
104	0x00000000	0.0
105	0x00000000	0.0
106	0x00000000	0.0
107	0x00000000	0.0
108	0x00000000	0.0
109	0x00000000	0.0
110	0x00000000	0.0
111	0x3b290f8c	0.002579662
112	0x3b8d3fc9	0.0043105823
113	0x3966bd3e	0.00022005007
114	0xb986d69e	-0.00025718374
115	0x3af46e28	0.0018648552
116	0xba933561	-0.0011231118
117	0x3b4b16c7	0.0030988918
118	0xbb12495d	-0.002232156
119	0xbb185a5a	-0.0023247213
120	0x3b0cb0d2	0.0021467698
121	0xbb0b9a8d	-0.0021301836
122	0xbada1683	-0.0016638789
123	0x3b40ecc3	0.0029437996
124	0x3c0dbc3e	0.0086508375
125	0x3bb5e263	0.005550669
126	0xbb864114	-0.0040971134
127	0xbb9f4339	-0.0048603085
128	0x39efc472	0.00045731995
129	0xbb84ff4c	-0.004058754
130	0x3b406f7a	0.002936332
131	0x3b0ae510	0.002119366
132	0x3bdb3847	0.0066900584
133	0x3a8373d9	0.0010029032
134	0xbb8e1800	-0.004336357
135	0x3ab6b741	0.0013940112
136	0x3a6a0406	0.0008926991
137	0x3a6019fe	0.0008548795
138	0x00000000	0.0
139	0x00000000	0.0
140	0x00000000	0.0
141	0x00000000	0.0
142	0x00000000	0.0
143	0x00000000	0.0
144	0x00000000	0.0
145	0x00000000	0.0
146	0x00000000	0.0
147	0x00000000	0.0
148	0x00000000	0.0
149	0x00000000	0.0
150	0x00000000	0.0
151	0x00000000	0.0
152	0x00000000	0.0
153	0x00000000	0.0
154	0x00000000	0.0
155	0x00000000	0.0
156	0x00000000	0.0
157	0x00000000	0.0
158	0x00000000	0.0
159	0x00000000	0.0
160	0x00000000	0.0
161	0x00000000	0.0
162	0x00000000	0.0
163	0x00000000	0.0
164	0x00000000	0.0
165	0x00000000	0.0
166	0x00000000	0.0
167	0x00000000	0.0
168	0x00000000	0.0
169	0x00000000	0.0
170	0x00000000	0.0
171	0x00000000	0.0
172	0x00000000	0.0
173	0x00000000	0.0
174	0x00000000	0.0
175	0x00000000	0.0
176	0x00000000	0.0
177	0x00000000	0.0
178	0x00000000	0.0
179	0x00000000	0.0
180	0x00000000	0.0
181	0x00000000	0.0
182	0x00000000	0.0
183	0x00000000	0.0
184	0x00000000	0.0
185	0x00000000	0.0
186	0x00000000	0.0
187	0x00000000	0.0
188	0x00000000	0.0
189	0x00000000	0.0
190	0x00000000	0.0
191	0x00000000	0.0
192	0x00000000	0.0
193	0x00000000	0.0
194	0x00000000	0.0
195	0x00000000	0.0
196	0x00000000	0.0
197	0x00000000	0.0
198	0x00000000	0.0
199	0x00000000	0.0
200	0x00000000	0.0
201	0x00000000	0.0
202	0x00000000	0.0
203	0x00000000	0.0
204	0x00000000	0.0
205	0x00000000	0.0
206	0x00000000	0.0
207	0x00000000	0.0
208	0x00000000	0.0
209	0x00000000	0.0
210	0x00000000	0.0
211	0x00000000	0.0
212	0x00000000	0.0
213	0x00000000	0.0
214	0x00000000	0.0
215	0x00000000	0.0
216	0x00000000	0.0
217	0x00000000	0.0
218	0x00000000	0.0
219	0x00000000	0.0
220	0x00000000	0.0
221	0x00000000	0.0
222	0x3b15587e	0.002278834
223	0x3af6a19c	0.0018816474
224	0x3a105861	0.00055063335
225	0x39e2dff4	0.00043272937
226	0x3b04bffd	0.0020256035
227	0xbbb056d3	-0.005381444
228	0xb98d45f6	-0.0002694574
229	0xba8614a8	-0.0010229545
230	0xba913a2d	-0.001107996
231	0x3bbbd6a1	0.005732373
232	0xba67c5f2	-0.0008841447
233	0xbb0005c6	-0.0019534691
234	0x3b3f47f5	0.0029187177
235	0x3bf73a6d	0.0075448067
236	0x3b564723	0.003269621
237	0xbb60ea16	-0.0034319214
238	0x3b15888e	0.0022816989
239	0x3b36acea	0.002787406
240	0xbb7486f1	-0.0037311877
241	0x3b2c237c	0.0026266268
242	0x3be0cf64	0.0068606604
243	0xb9ee27ea	-0.00045424636
244	0xba1622cb	-0.00057272305
245	0xbbdad88d	-0.006678647
246	0xba193983	-0.0005845057
247	0x3b9cf288	0.004789654
248	0xbbe08150	-0.0068513528
249	0x00000000	0.0
250	0x00000000	0.0
251	0x00000000	0.0
252	0x00000000	0.0
253	0x00000000	0.0
254	0x00000000	0.0
255	0x00000000	0.0
