pre-trained models/InvertedDoublePendulum_weights.pth (torch_old, 125925 bytes, 30 tensors)

fc1.weight f4 [64, 11]
-0.05885079 0.2144265 -0.35082063 0.31141967 0.38696775 -0.04783223 -0.15107673 -0.29334968
0.1492671 -0.022792779 -0.07785798 -0.27423108 -0.15313369 0.6295226 0.013171568 -0.06291908
0.07658021 -0.06019153 -0.056333724 -0.19084044 0.021204798 0.002967268 0.027044581 0.49679157
0.57227504 0.099914394 0.13670178 -0.09805863 -0.01862504 0.20405857 -0.120825015 -0.13102394
-0.09658278 0.02738653 -0.036652707 -0.03394645 -0.21985699 -0.12875815 -0.2502826 0.0074907667
0.27380243 -0.3318217 -0.18725608 -0.058244478 -0.3018904 -0.127053 -0.15136604 0.2420419
0.2773595 0.16019234 -0.03491481 -0.22757576 -0.27284828 0.031228408 0.04625499 -0.04607926
-0.060795892 -0.21504374 0.06759841 -0.0009832105 0.10196998 0.21009001 -0.08839809 0.12301328
-0.0637803 0.03751742 -0.0045510386 -0.09170641 0.24053265 0.14975563 0.10166734 0.020397235
0.16176659 0.24013942 -0.20638311 0.19765848 0.042205207 -0.049759373 0.2522501 0.30494875
-0.10419974 0.026943332 -0.08940956 0.015316344 0.22235513 -0.08541731 0.22814569 0.0029864926
0.072263695 -0.032074653 0.10571506 0.030794403 -0.041108448 -0.12967037 -0.12549673 -0.06894307
-0.079761855 0.08834973 0.013309121 -0.15311451 0.088007875 0.23547332 0.21824507 0.028023304
-0.14807838 0.17272931 0.3106843 -0.22078383 0.045192223 0.11792071 -0.09133371 0.007091948
0.0719239 -0.23139596 -0.05766349 -0.1812168 0.014063448 0.1463165 0.13157561 0.085874334
-0.17990704 -0.02329971 0.09513681 -0.20306695 0.16199942 -0.07559544 0.03240735 -0.006163073
-0.051753357 -0.1952321 -0.116263196 0.13500628 -0.452047 0.090885624 -0.33924955 -0.23380233
-0.13172401 -0.03801578 -0.10953216 -0.40769863 0.14045122 -0.16360229 0.059655383 0.094263904
0.27305302 0.47863764 0.10935737 -0.05966455 0.14604457 0.1740289 0.14596096 -0.09219427
-0.16127986 -0.21390733 0.00596401 -0.11894661 0.4196891 -0.28364205 -0.26662025 0.0662645
0.05731126 0.17042884 0.19289573 0.10982492 -0.009822586 0.08603855 0.058677718 0.35854968
-0.072354645 0.04159285 0.18460588 0.37498966 0.27032638 -0.035704218 -0.06564564 0.04173726
-0.017112538 0.033418126 -0.5070753 -0.3000099 -0.017880442 0.019244453 -0.036216754 -0.2165148
0.15506925 -0.05307278 -0.11363713 0.29232138 0.015467218 0.03453871 -0.17563567 -0.3510729
0.18872505 0.17339656 0.10597061 0.11058049 0.04546207 -0.16951557 0.034897074 -0.2675487
0.12529282 -0.0783705 -0.023710718 -0.15763827 0.020150473 -0.05357939 0.07495724 -0.032386977
-0.08182346 -0.033905145 -0.17202856 0.7774293 -0.11230893 -0.3888608 -0.18043114 0.015460916
0.22335324 0.15060253 -0.13131243 0.4488116 0.21303943 0.04329252 0.43575644 0.012868728
0.09539655 -0.07171065 0.25669318 0.44384533 0.03778076 0.079057194 0.23843406 0.06376404
-0.14097655 -0.258229 -0.101886444 0.18850799 -0.18067713 -0.16438982 -0.06911911 -0.07641281
0.029015234 0.19159117 -0.16775514 -0.22029495 -0.3897026 -0.023043044 0.033165585 -0.120698534
-0.26168764 -0.16376707 -0.38544375 0.06268363 0.02826351 -0.028037447 -0.007109424 -0.17095385
00000000: 870d 71bd 9f92 5b3e c39e b3be 6672 9f3e
00000010: a320 c63e baeb 43bd dcb3 1abe ee31 96be
00000020: 7ad9 183e ecb7 babc 0174 9fbd 0468 8cbe
00000030: 14cf 1cbe 6528 213f 8fcd 573c b8db 80bd
00000040: 16d6 9c3d 658b 76bd 31be 66bd ad6b 43be
00000050: afb5 ad3c 7f76 423b 998c dd3c 775b fe3e
00000060: 9e80 123f eb9f cc3d 8dfb 0b3e f7d2 c8bd
00000070: 8a93 98bc bbf4 503e 1b73 f7bd 242b 06be
00000080: 31cd c5bd b759 e03c 2621 16bd 6f0b 0bbd
00000090: 3122 61be 2dd9 03be 0a25 80be 1b75 f53b
000000a0: d52f 8c3e 89e4 a9be 0fc0 3fbe c391 6ebd
000000b0: 6191 9abe 2e1a 02be b3ff 1abe d5d9 773e
000000c0: 1002 8e3e 7609 243e d502 0fbd 9f09 69be
000000d0: c5b2 8bbe b8d2 ff3c df75 3d3d 9bbd 3cbd
000000e0: 1d05 79bd 6d34 5cbe 0971 8a3d 12df 80ba
000000f0: a3d5 d03d d621 573e 0f0a b5bd 63ee fb3d
00000100: 3f9f 82bd deab 193d e120 95bb 92d0 bbbd
00000110: 314e 763e 8a59 193e f736 d03d 1a18 a73c
00000120: 24a6 253e 1ce7 753e 1856 53be fc66 4a3e
00000130: 5edf 2c3d 7cd0 4bbd ed26 813e 3e22 9c3e
00000140: ac66 d5bd 43b8 dc3c 5c1c b7bd 67f1 7a3c
00000150: 10b1 633e 45ef aebd 069f 693e 08b9 433b
00000160: fdfe 933d b660 03bd 2381 d83d 8b44 fc3c
00000170: 5561 28bd 4fc8 04be 3782 00be 0632 8dbd
00000180: 2f5a a3bd b4f0 b43d 800e 5a3c 0dca 1cbe
00000190: 793d b43d eb1f 713e a37b 5f3e 2191 e53c
000001a0: dca1 17be f4df 303e 0312 9f3e 2815 62be
000001b0: 7b1b 393d 6a80 f13d 2b0d bbbd 9263 e83b
000001c0: d64c 933d 10f3 6cbe 8d30 6cbd e690 39be
000001d0: 606a 663c fed3 153e c2bb 063e e2de af3d
000001e0: 8d39 38be 09df bebc 16d7 c23d c8f0 4fbe
000001f0: 2de3 253e c8d1 9abd 92bd 043d 9af3 c9bb
00000200: 54fb 53bd ecea 47be 661b eebd 163f 0a3e
00000210: b472 e7be 3e22 ba3d 1eb2 adbe e169 6fbe
00000220: a9e2 06be 6fb6 1bbd 6652 e0bd e0bd d0be
00000230: 72d2 0f3e 5c87 27be 3459 743d 6f0d c13d
00000240: 9bcd 8b3e fe0f f53e c2f6 df3d d162 74bd
00000250: b58c 153e a234 323e ca76 153e 59d0 bcbd
00000260: 8c26 25be 860a 5bbe be6d c33b 489a f3bd
00000270: 7de1 d63e 8839 91be 7382 88be afb5 873d
00000280: 36bf 6a3d e684 2e3e 7586 453e e3eb e03d
00000290: e9ee 20bc fb34 b03d 0c58 703d d393 b73e
000002a0: ac2e 94bd 445d 2a3d 5309 3d3e a5fe bf3e
000002b0: 3868 8a3e 963e 12bd 3971 86bd b0f4 2a3d
000002c0: 982f 8cbc 72e1 083d b0cf 01bf e69a 99be
000002d0: 017a 92bc 8ba6 9d3c 0558 14bd 0eb6 5dbe
000002e0: 79ca 1e3e d862 59bd 95ba e8bd 26ab 953e
000002f0: 376a 7d3c 7678 0d3d d6d9 33be d4bf b3be
00000300: 2441 413e de8e 313e 1f07 d93d 0678 e23d
00000310: 6f36 3a3d 7d95 2dbe 3cf0 0e3d 25fc 88be
00000320: c34c 003e b680 a0bd fb3c c2bc ed6b 21be
00000330: 9b12 a53c 1076 5bbd 2e83 993d 35a8 04bd
00000340: 0f93 a7bd 1fe0 0abd 4128 30be 9b05 473f
00000350: 3902 e6bd c318 c7be f1c2 38be c84f 7d3c
00000360: b6b6 643e 8d37 1a3e c476 06be a2ca e53e
00000370: 0227 5a3e 7f53 313d 781b df3e 5bd7 523c
00000380: 445f c33d 09dd 92bd 4a6d 833e b23f e33e
00000390: 00c0 1a3d bde8 a13d 0f28 743e b996 823d
000003a0: 285c 10be 9736 84be d7a9 d0bd 3d08 413e
000003b0: 6d03 39be ce55 28be 528e 8dbd 527e 9cbd
000003c0: 5bb1 ed3c 7a30 443e 01c8 2bbe 0095 61be
000003d0: 1987 c7be c4c4 bcbc a3d8 073d cb30 f7bd
000003e0: ecfb 85be 8eb2 27be e258 c5be 4660 803d
000003f0: e088 e73c caae e5bc 2cf6 e8bb 870e 2fbe

fc1.bias f4 [64]
0.086309835 -0.0736529 -0.00026045568 0.034461733 0.008181223 -0.06749704 0.12917352 -0.0031376835
-0.1407776 0.0054817926 -0.073032565 -0.05880177 0.056239393 -0.015686024 -0.13207349 0.07828707
-0.059969053 -0.12144702 -0.0040627713 -0.07767592 -0.06949618 -0.07971038 0.003639069 0.0061120884
-0.02633447 0.0354775 0.010815834 -0.026661336 0.065315545 -0.10283234 0.017500801 -0.08019773
0.0382334 -0.009300425 0.12041946 0.14864098 0.068580225 0.080723904 -0.031822722 0.124329515
-0.061106242 -0.033674963 -0.062165603 -0.10162354 -0.0023739366 -0.03276099 0.017075045 0.008861115
0.009192764 0.10137607 0.021483354 0.092588864 0.04491973 -0.14319575 0.042522136 -0.04021152
-0.09353803 0.0009712852 -0.036730114 0.015991503 0.03617048 0.0031225148 0.01257415 0.00040292722
00000000: 36c3 b03d 55d7 96bd c58d 88b9 bf27 0d3d
00000010: 890a 063c e33b 8abd 1046 043e 98a1 4dbb
00000020: 0128 10be 9ca0 b33b 1992 95bd 20da 70bd
00000030: 475b 663d fa7f 80bc 463e 07be f954 a03d
00000040: 1ca2 75bd 37b9 f8bd ff20 85bb 8e14 9fbd
00000050: 0354 8ebd 323f a3bd 727d 6e3b ea47 c83b
00000060: 63bb d7bc db50 113d e534 313c e068 dabc
00000070: 28c4 853d c399 d2bd d75d 8f3c b53e a4bd
00000080: a09a 1c3d cf60 18bc 7a9e f63d 5735 183e
00000090: ca73 8c3d 9352 a53d 8b58 02bd 79a0 fe3d
000000a0: 8a4a 7abd c2ee 09bd 5ca1 7ebd 0120 d0bd
000000b0: 0c94 1bbb 6330 06bd f7e0 8b3c 362e 113c
000000c0: 3f9d 163c 429e cf3d dcfd af3c 3b9f bd3d
000000d0: c0fd 373d e8a1 12be b12b 2e3d d6b4 24bd
000000e0: de90 bfbd d99d 7e3a 5172 16bd 9d00 833c
000000f0: 7f27 143d 1ba3 4c3b cf03 4e3c fa3f d339

fc2.weight f4 [64, 64]
0.08126533 -0.0330235 -0.096848525 0.048802838 0.02061592 -0.07924174 0.041963432 -0.18808934
0.082505286 -0.005726218 -0.22574282 0.21018083 0.009834763 0.20243007 -0.039296485 0.29089925
-0.10589375 -0.049583822 -0.021261502 -0.11890953 0.32401538 0.21062492 0.10805035 -0.11042252
0.08928986 0.27260825 0.2932015 0.11501774 0.055650733 0.037672736 -0.034174908 0.07541142
0.15902686 0.14135773 -0.20355582 0.14171007 -0.18979894 -0.13990657 -0.058801178 0.105761394
0.15664268 -0.0536322 -0.075318545 0.34394246 -0.053924974 -0.037560556 0.032953143 0.0683601
-0.21320991 0.15186211 0.15281495 -0.07468794 -0.017604657 -0.1469163 -0.29314855 -0.16352724
-0.05217106 -0.27541807 -0.046386268 0.41281027 0.021612054 0.089101195 0.1036906 0.12530169
0.32182866 -0.028763803 0.022375803 -0.20390016 0.31194985 0.106935024 0.1816537 -0.12969817
0.16348252 0.13363622 -0.17759782 0.14298926 -0.13287835 0.075147495 -0.04367375 -0.0043120263
-0.040023148 -0.09041988 0.0063107843 -0.06596102 0.026866086 -0.002044282 0.26470807 -0.062909484
0.011515577 -0.004892219 0.02861737 -0.26446432 -0.018090455 0.036523126 0.20119771 -0.102752164
0.27683294 -0.08463033 0.057389405 -0.043006297 0.043514863 -0.027997984 0.0009040541 -0.07097471
0.10588894 -0.11231389 -0.13779888 0.017536424 0.15685213 -0.18398954 0.108696446 -0.17406066
-0.068810955 -0.17039381 -0.1728115 -0.27572525 0.036840975 0.35040528 -0.09427407 0.021453908
-0.13647978 -0.29620957 -0.07227941 0.047512487 0.002514389 0.26265964 0.3317128 0.26075754
-0.028524125 0.009217806 -0.0013006 0.10664929 -0.041414708 -0.08341004 0.020868476 0.09291267
0.05460138 0.39008126 0.028786298 -0.2652217 -0.11750447 0.08494134 -0.16267169 0.2329556
-0.081291094 0.030939989 0.0735906 0.122660555 0.44125447 0.10167752 -0.2587781 -0.11730508
-0.13727912 0.16301252 -0.1314074 -0.29326263 -0.075872146 -0.25792265 0.0006776892 0.36662915
0.19397624 -0.14028628 0.1358338 -0.01222589 0.061760493 0.24544697 -0.20953888 -0.20485903
0.23882663 0.2788117 -0.031797383 -0.008241948 -0.036142565 0.022165798 -0.07502009 0.25940815
0.2105702 -0.05858587 0.17253931 0.14321287 -0.13959296 -0.2697438 0.15410241 -0.47277245
0.019514553 0.17597403 -0.074561894 -0.14296076 0.18836713 0.26442006 -0.16971071 0.2472747
-0.09782282 0.030252079 0.0028706347 -0.066366315 -0.18026707 -0.03614058 -0.074651875 -0.19238187
-0.0019605865 -0.21459778 0.043465283 0.026549384 0.0038839958 0.23578629 -0.26873964 0.29898477
-0.10752062 0.20603392 -0.010217268 -0.12759888 -0.17463352 -0.24824673 -0.21061943 0.0760965
0.08618993 0.019217543 -0.011532291 -0.19936377 -0.14511436 -0.122825734 0.24819224 -0.07498411
-0.05253537 -0.011935358 0.09613621 -0.039930686 0.31482676 -0.046207152 0.1884367 -0.25009984
-0.07777751 -0.1475611 0.14703092 -0.039776 -0.0075799995 -0.0044591734 -0.17869246 0.11317864
-0.031840663 -0.060561106 0.27655533 0.13424802 -0.3632642 -0.10514587 -0.1282268 -0.059190642
0.055993576 -0.08765769 -0.08020071 0.058772564 -0.044479873 -0.04770549 0.081025295 0.024681944
00000000: 706e a63d a643 07bd 8558 c6bd 7ce5 473d
00000010: b8e2 a83c 7e49 a2bd d9e1 2b3d 7e9a 40be
00000020: 88f8 a83d 00a3 bbbb 2029 67be a539 573e
00000030: fc21 213c d449 4f3e 5af5 20bd bff0 943e
00000040: d3de d8bd 6818 4bbd 9a2c aebc d786 f3bd
00000050: 58e5 a53e 0fae 573e 8049 dd3d 3425 e2bd
00000060: 9add b63d 4f93 8b3e 821e 963e 6c8e eb3d
00000070: 06f2 633d ba4e 1a3d fdfa 0bbd 4d71 9a3d
00000080: f0d7 223e 15c0 103e f070 50be 721c 113e
00000090: a75a 42be ab43 0fbe 81d9 70bd 6e99 d83d
000000a0: f066 203e 70ad 5bbd 9c40 9abd 3a19 b03e
000000b0: 6fe0 5cbd 19d9 19bd e0f9 063d 6100 8c3d
000000c0: b353 5abe be81 1b3e 867b 1c3e fef5 98bd
000000d0: a437 90bc 3a71 16be 9117 96be af73 27be
000000e0: 52b1 55bd 9903 8dbe 87ff 3dbd de5b d33e
000000f0: c30b b13c b07a b63d bd5b d43d 164f 003e
00000100: bac6 a43e 11a2 ebbc 764d b73c 34cb 50be
00000110: e4b7 9f3e c000 db3d 6d03 3a3e 99cf 04be
00000120: f667 273e efd7 083e 34dc 35be c76b 123e
00000130: 4311 08be eee6 993d 3fe3 32bd e64b 8dbb
00000140: 50ef 23bd 0f2e b9bd b2ca ce3b 9216 87bd
00000150: 4416 dc3c 5cf9 05bb d187 873e b0d6 80bd
00000160: d5ab 3c3c e84e a0bb fa6e ea3c de67 87be
00000170: 6f32 94bc 4699 153d c606 4e3e ba6f d2bd
00000180: 0cbd 8d3e ab52 adbd 2711 6b3d 5f27 30bd
00000190: a43c 323d 075c e5bc 0bfe 6c3a 305b 91bd
000001a0: 4ddc d83d d304 e6bd 261b 0dbe 8ca8 8f3c
000001b0: d89d 203e c167 3cbe 3e9c de3d f53c 32be
000001c0: c2ec 8cbd b77b 2ebe 7ff5 30be dc2b 8dbe
000001d0: 90e6 163d 5268 b33e c312 c1bd 1bc0 af3c
000001e0: 5bc1 0bbe c8a8 97be 3a07 94bd 749c 423d
000001f0: 73c8 243b 537b 863e 43d6 a93e 0382 853e
00000200: 6dab e9bc 4806 173c e578 aaba f16a da3d
00000210: 78a2 29bd e2d2 aabd 5ef4 aa3c ff48 be3d
00000220: b2a5 5f3d bbb8 c73e 3ed1 eb3c 23cb 87be
00000230: 2fa6 f0bd baf5 ad3d 6893 26be ea8b 6e3e
00000240: f27b a6bd dc75 fd3c abb6 963d 7535 fb3d
00000250: 1bec e13e 4e3c d03d 907e 84be a53d f0bd
00000260: e692 0cbe c1ec 263e a98f 06be 8526 96be
00000270: db62 9bbd 700e 84be f4a6 313a d1b6 bb3e
00000280: b5a1 463e 35a7 0fbe 0418 0b3e 194f 48bc
00000290: 92f8 7c3d 7356 7b3e 5c91 56be 91c6 51be
000002a0: f88e 743e 68c0 8e3e f93d 02bd 3c09 07bc
000002b0: 3a0a 14bd 0c95 b53c 22a4 99bd 25d1 843e
000002c0: b79f 573e bdf7 6fbd 25ae 303e 65a6 123e
000002d0: 75f1 0ebe dc1b 8abe 06cd 1d3e 3b0f f2be
000002e0: fcdc 9f3c 8932 343e e8b3 98bd 4e64 12be
000002f0: 50e3 403e 1162 873e a5c8 2dbe 9435 7d3e
00000300: 5557 c8bd 35d3 f73c 4221 3c3b 10eb 87bd
00000310: ee97 38be 2508 14bd 15e3 98bd c1ff 44be
00000320: 2f7d 00bb 85bf 5bbe a708 323d 187e d93c
00000330: a38a 7e3b f671 713e 3e98 89be 8814 993e
00000340: c533 dcbd 8efa 523e 5466 27bc 48a9 02be
00000350: 21d3 32be 6434 7ebe 9fac 57be 7bd8 9b3d
00000360: 5984 b03d 1c6e 9d3c eff1 3cbc 0426 4cbe
00000370: dc98 14be 0f8c fbbd 1b26 7e3e 4591 99bd
00000380: 542f 57bd 858c 43bc 10e3 c43d 5c8e 23bd
00000390: f930 a13e b643 3dbd 8df5 403e 160d 80be
000003a0: d149 9fbd 421a 17be 468f 163e 29ec 22bd
000003b0: a561 f8bb 421e 92bb 28fb 36be 34ca e73d
000003c0: 5b6b 02bd ec0e 78bd a998 8d3e 5078 093e
000003d0: c4fd b9be b856 d7bd e34d 03be e371 72bd
000003e0: 8559 653d e085 b3bd 4540 a4bd 80bb 703d
000003f0: 8730 36bd d566 43bd 97f0 a53d ca31 ca3c

fc2.bias f4 [64]
0.022630926 0.052550178 0.03441821 0.03442635 -0.024402523 -0.04973675 -0.00069318264 -0.011521638
0.015303795 0.23652878 -0.008938621 0.024857618 0.14219856 -0.033105884 0.036626305 -0.033839326
0.08964047 0.1244694 -0.090007015 0.0075738397 0.01398796 -0.052858718 -0.06444816 -0.002632862
0.00010100011 0.0035425907 -0.04165801 0.08212197 0.063737355 0.03220935 0.036413424 0.010813848
-0.039011244 0.04650997 -0.11608427 -0.0721299 -0.033974335 -0.08223048 -0.034000494 0.10281
-0.10040351 -0.003966751 0.013446326 -0.048812177 0.0060463455 0.059336193 -0.043344196 -0.04250937
0.039051123 0.037540145 0.0364311 -0.038083963 0.080019966 0.0024520883 0.039427895 0.058777608
-0.021303164 0.010915616 0.06494269 0.020084074 -0.0027942837 -0.07005618 0.032438226 0.00563998
00000000: 7e64 b93c db3e 573d 1cfa 0c3d a502 0d3d
00000010: cde7 c7bc c3b8 4bbd b3b6 35ba 41c5 3cbc
00000020: c5bc 7a3c 9a34 723e 4b73 12bc 34a2 cb3c
00000030: 809c 113e 099a 07bd 7705 163d 1b9b 0abd
00000040: 6c95 b73d d0e9 fe3d 9955 b8bd f92d f83b
00000050: c22d 653c 6282 58bd 66fd 83bd 188c 2cbb
00000060: 05d0 d338 cf2a 683b 97a1 2abd 902f a83d
00000070: bb88 823d f4ed 033d 3e26 153d 912c 313c
00000080: 41ca 1fbd 3d81 3e3d 97bd edbd d7b8 93bd
00000090: ac28 0bbd 7468 a8bd 1a44 0bbd 0d8e d23d
000000a0: 5ba0 cdbd 85fb 81bb fb4d 5c3c 47ef 47bd
000000b0: 6c20 c63b 820a 733d af89 31bd 4e1e 2ebd
000000c0: 12f4 1f3d b2c3 193d c738 153d eefd 1bbd
000000d0: 82e1 a33d 37b3 203b 257f 213d cac0 703d
000000e0: f983 aebc 69d7 323c ac00 853d 5b87 a43c
000000f0: 4d20 37bb 9d79 8fbd f2dd 043d 95cf b83b

mu.weight f4 [1, 64]
-0.08534599 -0.043464076 -0.039778374 0.001844542 0.00050125015 0.073522136 -0.0819766 -0.024924012
-0.048289247 0.32932428 -0.019947957 -0.022176147 -0.3649993 -0.027019154 0.025002293 -0.021476246
0.0030912387 -0.21246819 0.094407305 -0.006186332 -0.0073713823 -0.0009156332 0.0038558478 -0.024598619
0.07045456 -0.01749593 0.030641768 0.024089891 -0.022846516 -0.0011650301 -0.022773283 -0.20088577
0.023314511 0.41621065 -0.08618492 0.16454326 -0.010715966 0.008730327 -0.02532571 0.04318146
-0.017120615 0.021963485 0.008776727 -0.027988046 0.0016076809 -0.045206584 0.004860313 -0.017433638
0.011517532 0.00026710352 -0.00738301 -0.08721738 -0.0201983 0.0071141664 -0.017030654 -0.010234466
0.0141571285 -0.008673954 0.023320677 0.0051351516 0.001650327 -0.114013284 -0.020732034 -0.01658132
00000000: e1c9 aebd 6307 32bd a6ee 22bd 8fc4 f13a
00000010: 5466 033a c692 963d 59e3 a7bd 712d ccbc
00000020: f2ca 45bd 319d a83e e669 a3bc c0aa b5bc
00000030: 30e1 babe 4657 ddbc 9cd1 cc3c f4ee afbc
00000040: 6196 4a3b 4391 59be 9e58 c13d b7b6 cabb
00000050: a38b f1bb 1b07 70ba 64b2 7c3b 0b83 c9bc
00000060: 7b4a 903d a053 8fbc 7204 fb3c 2a58 c53c
00000070: 9e28 bbbc ecb3 98ba 098f babc 00b5 4dbe
00000080: 13fe be3c 9019 d53e b881 b0bd 077e 283e
00000090: 0592 2fbc a509 0f3c dd77 cfbc 0bdf 303d
000000a0: 8840 8cbc c4ec b33c 43cc 0f3c 3047 e5bc
000000b0: d2b8 d23a 8a2a 39bd 4343 9f3b fdd0 8ebc
000000c0: 08b4 3c3c 070a 8c39 2ded f1bb 079f b2bd
000000d0: e876 a5bc f41d e93b df83 8bbc 76ae 27bc
000000e0: 4df3 673c 331d 0ebc 010b bf3c c644 a83b
000000f0: c94f d83a cc7f e9bd 3ad6 a9bc 8cd5 87bc

fc1.weight f4 [64, 11]
0.3119722 0.101891264 0.28088114 0.13615048 -0.6177428 0.15947162 0.49021012 0.27708817
-0.035405878 0.04994972 0.02533042 -0.1951273 -0.2777599 -0.1801107 -0.034492537 -0.36712286
0.093910076 0.09940844 -0.10530637 0.24799655 -0.10489437 0.1551826 0.16285497 0.33409154
-0.26514316 -0.014643109 -0.29062992 0.40257367 0.4925788 0.48526427 -0.078692794 -0.12268768
-0.20117038 0.10378415 0.075318 -0.061376795 -0.28569221 0.57533026 0.24845986 0.4763948
0.18431509 -0.04321221 0.060544558 0.01196203 0.41326952 1.0960106 -1.0236781 0.0817052
0.19131243 0.59791815 0.89887553 0.23500068 -0.27745223 0.08238411 0.11980401 -0.38623202
-0.044409547 -0.85605526 0.052096304 0.08871052 -0.42493036 -0.7907971 -0.5016062 -0.5892004
0.062154092 0.28155303 -0.031822287 -0.53933 0.03066656 0.5502341 0.48602462 -0.03191827
0.03181392 0.057800084 -0.09112567 -0.10982946 -0.113693684 -0.5356796 0.28841704 0.7173355
-0.86109895 -0.5324571 -0.743255 0.15773337 0.55082107 0.015559626 -0.045749098 0.026879743
0.40128013 0.33966875 0.8595614 0.07230427 -0.045186933 0.44236568 0.702713 0.36508057
-1.457283 0.016895922 -0.07559252 -0.33443218 -0.91013056 0.1524578 -0.32383302 0.2535216
-0.38336545 -0.743599 -0.2416107 0.26676467 -0.07424345 -0.080905005 -0.635484 0.24511734
-0.21464103 0.6124962 -0.10937305 -0.44941044 -0.116503075 -0.0031739187 0.0848616 -0.068885796
-0.05516598 0.38273028 0.38077673 0.6556208 -0.019847741 0.35228568 0.4818039 0.54830146
0.420434 0.3192902 0.096537635 -0.21853247 0.37441707 0.27646032 0.6114102 0.21240748
0.07985385 0.33164984 0.64900464 0.49148387 0.5327786 -0.06365032 0.026382072 0.4729496
-0.96167934 1.2900556 0.23840903 -0.5216716 -0.415321 -0.68900913 0.28427374 -0.04097139
0.20031376 0.11330349 -0.09296893 0.15307301 0.13926287 -0.003162445 -0.29872897 0.13099106
0.3254837 0.1939629 -0.318255 -0.033362888 -0.22670183 -0.06277603 -0.2110661 0.08970245
-0.06816022 -0.5919598 -0.054051075 0.29344213 0.14674027 -0.33508602 -0.013813275 -0.20773406
0.26070595 -0.16220716 -0.08269553 -0.08276374 0.53499675 -0.14036982 -0.34502888 -0.24029279
0.8936063 -0.06675837 0.020167883 -0.60463184 0.5617225 0.9819298 0.2737244 -0.053711373
0.32196283 0.818192 0.59030306 0.3115526 0.38379872 0.07300786 -0.3950603 -0.57480156
-0.65482515 0.19158642 -0.008760837 -0.29251134 -0.6069733 -0.51768315 -0.6122644 0.18127884
-0.10597892 -0.18867555 -0.116074 -0.23688969 -1.0565239 -0.76314163 -0.17627521 0.057190888
-0.044477817 -0.010108418 0.006973072 -0.051214326 -0.19027449 -0.40294173 -0.043465585 -0.5907589
-0.45151585 -0.15420477 0.021842392 -0.15966375 0.03352599 0.13313241 -0.15140454 0.021178758
-0.34427083 -0.3146496 0.19197676 0.41426677 -0.3058476 -0.42986768 -0.3257612 0.52676684
-0.17358753 -0.13619953 0.10315574 0.74156463 0.6378815 -0.22327337 -0.27925846 0.596915
0.3730868 0.6158019 0.4995367 -0.03726057 -0.1479196 -1.1674299 0.2242243 -0.55823123
00000000: d2ba 9f3e 5eac d03d a7cf 8f3e 086b 0b3e
00000010: 6424 1ebf 874c 233e d2fc fa3e 80de 8d3e
00000020: c105 11bd 1498 4c3d be81 cf3c 73cf 47be
00000030: 8c36 8ebe f06e 38be 0c48 0dbd 87f7 bbbe
00000040: ed53 c03d a796 cb3d deaa d7bd cff2 7d3e
00000050: dcd2 d6bd 30e8 1e3e 74c3 263e 0c0e ab3e
00000060: d8c0 87be a7e9 6fbc 72cd 94be 231e ce3e
00000070: 4a33 fc3e 8f74 f83e b029 a1bd ae43 fbbd
00000080: 9cff 4dbe c98c d43d 5340 9a3d 3c66 7bbd
00000090: 4046 92be d848 133f 436c 7e3e 05ea f33e
000000a0: 18bd 3c3e 49ff 30bd 92fd 773d 64fc 433c
000000b0: 1098 d33e 134a 8c3f e207 83bf 0e55 a73d
000000c0: 68e7 433e 2a11 193f b51c 663f 05a4 703e
000000d0: 380e 8ebe 00b9 a83d ce5b f53d 34c0 c5be
000000e0: c9e6 35bd 7026 5bbf ef62 553d dcad b53d
000000f0: 7990 d9be ae71 4abf 4469 00bf d6d5 16bf
00000100: 4a95 7e3d b827 903e 1658 02bd 8811 0abf
00000110: 7038 fb3c 24dc 0c3f 38d8 f83e bbbc 02bd
00000120: 504f 023d c8bf 6c3d 18a0 babd 45ee e0bd
00000130: 3cd8 e8bd 4c22 09bf 66ab 933e 4da3 373f
00000140: fb70 5cbf 1c4f 08bf f645 3ebf db84 213e
00000150: 9c02 0d3f cded 7e3c 6863 3bbd e832 dc3c
00000160: 9774 cd3e 10e9 ad3e 370c 5c3f 4314 943d
00000170: ef15 39bd c17d e23e 00e5 333f d7eb ba3e
00000180: 4088 babf 5169 8a3c 40d0 9abd b23a abbe
00000190: 51fe 68bf e61d 1c3e 71cd a5be 95cd 813e
000001a0: 7a48 c4be 815c 3ebf cc68 77be 6195 883e
000001b0: f30c 98bd 86b1 a5bd 14af 22bf 0a00 7b3e
000001c0: dcca 5bbe 8dcc 1c3f fafe dfbd 2019 e6be
000001d0: 2a99 eebd 8501 50bb ebcb ad3d ff13 8dbd
000001e0: b9f5 61bd 39f5 c33e 2bf5 c23e c4d6 273f
000001f0: bb97 a2bc ca5e b43e 00af f63e 7c5d 0c3f
00000200: 2043 d73e 017a a33e 86b5 c53d fac6 5fbe
00000210: 98b3 bf3e 358c 8d3e 6185 1c3f 5981 593e
00000220: 6a8a a33d 02ce a93e 2b25 263f c6a3 fb3e
00000230: 2e64 083f 195b 82bd 371f d83c 7326 f23e
00000240: 9e30 76bf 8b20 a53f 7f21 743e 458c 05bf
00000250: f4a4 d4be e762 30bf 548c 913e 9ed1 27bd
00000260: 0d1f 4d3e a90b e83d 7f66 bebd 2cbf 1c3e
00000270: ed9a 0e3e 0641 4fbb 01f3 98be 8522 063e
00000280: cda5 a63e 369e 463e 52f2 a2be 86a7 08bd
00000290: 8624 68be b890 80bd b621 58be ebb5 b73d
000002a0: 9697 8bbd ad8a 17bf a964 5dbd 0c3e 963e
000002b0: 1543 163e 6590 abbe 1351 62bc 3db8 54be
000002c0: 407b 853e a219 26be 465c a9bd 0980 a9bd
000002d0: 8cf5 083f 1bbd 0fbe a0a7 b0be 500f 76be
000002e0: 62c3 643f 9db8 88bd 1e37 a53c 27c9 1abf
000002f0: 0ccd 0f3f c05f 7b3f 9b25 8c3e 7500 5cbd
00000300: 50d8 a43e 0875 513f 1a1e 173f d383 9f3e
00000310: 4481 c43e 2585 953d 5845 cabe 3226 13bf
00000320: 9fa2 27bf 3b2f 443e 9d89 0fbc 0cc4 95be
00000330: 9a62 1bbf e286 04bf 5cbd 1cbf 29a1 393e
00000340: 7a0b d9bd 2a34 41be 35b8 edbd 3693 72be
00000350: 2d3c 87bf 405d 43bf 7d81 34be fe40 6a3d
00000360: 5f2e 36bd c79d 25bc 5e7e e43b 1dc6 51bd
00000370: 51d7 42be 614e cebe f808 32bd fa3b 17bf
00000380: 162d e7be dbe7 1dbe d1ee b23c e57e 23be
00000390: 8c52 093d dd53 083e cb09 1bbe 137f ad3c
000003a0: 4444 b0be c119 a1be 8e95 443e c61a d43e
000003b0: 0e98 9cbe 9e17 dcbe 2cca a6be 31da 063f
000003c0: eec0 31be e477 0bbe 5143 d33d 2ed7 3d3f
000003d0: 344c 233f c6a1 64be f7fa 8ebe 6ccf 183f
000003e0: 3c05 bf3e 31a5 1d3f 46c3 ff3e 8a9e 18bd
000003f0: 3c78 17be 586e 95bf 0e9b 653e 3ee8 0ebf

fc1.bias f4 [64]
0.34377405 0.38149574 0.3914007 -0.26188427 -0.08281498 -0.28115404 -0.32692215 -0.27478725
0.23494032 -0.2857848 0.97919875 -0.06158014 -0.09197904 0.45800883 0.1990367 0.18120667
-0.30719534 0.07038979 -0.30775547 -0.75339866 0.0037413444 -0.12896891 0.14450859 -1.2601004
0.61536 1.0395384 0.99979395 0.16229369 1.00287 -0.67980886 -0.8283589 -0.0839632
-0.22896604 -0.48493943 -0.6632602 0.69301015 -1.0368047 -0.47366863 0.47931117 -0.45936465
-0.56693107 0.7247246 0.28158122 0.7101092 0.1437464 -0.38650563 -0.16622666 0.3789955
-0.1138267 -0.712011 0.6894646 0.1943354 -0.012464449 -0.7585134 -0.61468345 -0.88563037
-1.0897998 -0.5004745 0.36024362 0.14299828 -0.5037743 0.17734024 0.04932686 -0.06957261
00000000: 2703 b03e 6953 c33e ac65 c83e b215 86be
00000010: e69a a9bd 6cf3 8fbe 5762 a7be eab0 8cbe
00000020: 3294 703e 6352 92be c5ac 7a3f 753b 7cbd
00000030: 825f bcbd 2280 ea3e 47d0 4b3e 3e8e 393e
00000040: b548 9dbe 8628 903d 2092 9dbe bcde 40bf
00000050: 5831 753b 6d10 04be 0ffa 133e f84a a1bf
00000060: 3c88 1d3f 980f 853f 7ff2 7f3f 5130 263e
00000070: 0b5e 803f f407 2ebf 540f 54bf e6f4 abbd
00000080: 1376 6abe fb49 f8be 6ccb 29bf 1d69 313f
00000090: 04b6 84bf b284 f2be 4668 f53e d831 ebbe
000000a0: 6522 11bf 8d87 393f 6a2b 903e b7c9 353f
000000b0: 4232 133e 11e4 c5be 5237 2abe b30b c23e
000000c0: f91d e9bd 5a46 36bf c180 303f dcff 463e
000000d0: b037 4cbc ef2d 42bf e55b 1dbf acb8 62bf
000000e0: 8f7e 8bbf 191f 00bf da71 b83e 246e 123e
000000f0: 5af7 00bf ae98 353e f60a 4a3d 167c 8ebd

fc2.weight f4 [64, 64]
1.1104435 -0.3071237 -0.14113568 0.57651705 1.077446 -1.0194423 1.1149045 1.1430459
0.96670943 0.085057504 -0.2755 1.0087188 0.8002963 -0.8371029 -0.9202939 -0.37902883
0.013697555 0.7001551 -0.8280771 -1.0935662 -1.0452665 0.78669184 0.59709656 0.7355996
-0.7024416 -0.42874596 -0.42298177 0.83755004 -0.2930956 0.15437917 0.7784279 -0.72556406
0.5868335 0.47340792 1.4819971 -0.4044838 0.16408455 1.2396617 -0.8810539 1.4586701
1.0659676 0.03832442 -0.11581407 0.48056313 -1.1406122 -0.6313031 1.3045928 -1.5689863
-1.2849115 1.1349565 -0.59751153 -1.3664742 0.9996694 0.8748665 0.32507482 0.83187646
-0.5321998 0.41831172 0.1034776 -1.1317004 0.54546046 1.1829445 1.029632 1.4364204
0.4409394 0.4499697 1.4569451 0.2856413 0.892042 -1.500278 -0.091815084 -0.12316352
1.1010896 -1.2150636 0.62548804 0.74262804 0.8949994 -0.4532162 0.8993272 2.0106912
-0.6873365 1.6389656 -0.79462 1.0867558 0.6528429 -1.2025805 0.92302525 0.11378276
0.13948004 0.82449377 0.60493845 -0.022120235 0.43325403 -0.30155867 -0.37113538 -1.4198488
1.0747241 -1.1362392 -0.12807477 0.07810219 -0.16625156 -1.2043934 -0.037827343 -0.25612167
-0.63212824 0.2402085 0.048344433 1.3071507 -0.02483494 -1.2643416 0.12357592 -0.36168158
1.1314819 -0.3461588 1.0885808 -1.0753942 2.3132899 -0.7656217 -0.3604236 -0.444821
-1.1831478 -0.29799372 0.72636116 -0.8333351 -1.2421682 1.4193009 1.5084642 -0.11600044
-0.78507835 0.41798684 0.4377161 -0.23831053 -1.107878 0.7380389 -1.180147 -1.421998
-1.1427568 0.16785137 0.39470413 -0.77927077 -1.0814621 1.0803666 0.71247107 0.29547766
-0.2439298 -0.17302983 1.0565797 1.0841235 1.4430848 -0.9023032 -0.41736367 -0.9384539
0.66901684 0.3720041 0.33966213 -0.7025974 0.5253187 -0.069863625 -0.9087949 0.68718904
-0.76010495 -0.2302563 -1.5151173 0.32012036 -0.5365326 -0.8715873 1.056123 -1.2506621
-0.9284351 0.053550836 0.21431747 -0.8280809 1.078 0.41271216 -1.3772753 1.5230314
1.4751965 -0.9711585 1.088488 1.1429136 -1.0023658 -1.2594205 -0.39054003 -0.85913515
0.6753963 -0.3123939 -0.11139192 0.6597201 -0.4421278 -1.3413789 -1.0749902 -1.4601815
0.75533384 0.49053013 1.0311453 0.12506029 0.91866374 -1.6655467 -0.06247371 -0.07843054
0.79967237 -1.4060423 0.4805042 1.0737417 0.95538497 -0.26211852 1.1888814 2.0771852
-0.19434683 1.2931815 -0.7357883 1.1535268 1.2572362 -1.1707903 0.7305157 0.6524772
0.22289707 0.6608267 0.7311008 0.16935773 0.83467734 -0.15043552 -0.08948174 -1.2714044
1.046621 -1.2006079 -0.23506425 0.57157934 -0.21286963 -1.0871052 -0.16377625 -0.36665854
-0.54728836 -0.16635722 0.037378956 1.3635726 -0.073580585 -1.5216506 -0.28057703 -0.35733035
1.1531649 -0.34768698 1.2547852 -1.297513 1.6679298 -0.9618958 -0.3413684 -0.72374177
-1.37201 -0.47815177 1.0872167 -0.7404349 -1.2820626 1.6113822 1.0843159 -0.29621446
00000000: 0323 8e3f 513f 9dbe df85 10be 9f96 133f
00000010: c0e9 893f 167d 82bf 31b5 8e3f 544f 923f
00000020: 457a 773f a132 ae3d 560e 8dbe b31d 813f
00000030: 38e0 4c3f 604c 56bf 6298 6bbf 1110 c2be
00000040: b66b 603c 5d3d 333f dcfc 53bf faf9 8bbf
00000050: 4bcb 85bf a364 493f 52db 183f 4150 3c3f
00000060: 36d3 33bf 9784 dbbe 1191 d8be ae69 563f
00000070: a010 96be 9315 1e3e 0d47 473f 91be 39bf
00000080: b83a 163f 8662 f23e 15b2 bd3f 8018 cfbe
00000090: c805 283e 3cad 9e3f c08c 61bf b4b5 ba3f
000000a0: a071 883f 11fa 1c3d ed2f edbd 5f0c f63e
000000b0: 95ff 91bf 149d 21bf e6fc a63f 8bd4 c8bf
000000c0: fb77 a4bf 4146 913f 84f6 18bf a0e8 aebf
000000d0: 55ea 7f3f 40f7 5f3f 3570 a63e dbf5 543f
000000e0: 3f3e 08bf f42c d63e 10ec d33d 8fdb 90bf
000000f0: 4ca3 0b3f ba6a 973f fbca 833f a0dc b73f
00000100: cfc2 e13e 6e62 e63e 2d7d ba3f 943f 923e
00000110: dd5c 643f 1c09 c0bf 8c09 bcbd 283d fcbd
00000120: 81f0 8c3f 3487 9bbf fc1f 203f df1c 3e3f
00000130: ae1e 653f f40b e8be 4f3a 663f 2aaf 0040
00000140: 49f5 2fbf a0c9 d13f 376c 4bbf d01a 8b3f
00000150: b620 273f 28ee 99bf 624b 6c3f f006 e93d
00000160: dbd3 0e3e 0612 533f 3fdd 1a3f 7f35 b5bc
00000170: 79d3 dd3e e665 9abe 7505 bebe 9bbd b5bf
00000180: 8f90 893f 4970 91bf 0826 03be 0af4 9f3d
00000190: d93d 2abe 9029 9abf d8f0 1abd 6122 83be
000001a0: 28d3 21bf 38f9 753e d004 463d b750 a73f
000001b0: a572 cbbc f2d5 a1bf 5f15 fd3d 542e b9be
000001c0: 66d4 903f ba3b b1be 9e56 8b3f 84a6 89bf
000001d0: f10c 1440 c9ff 43bf 7189 b8be 94bf e3be
000001e0: 6371 97bf a292 98be cef2 393f 7355 55bf
000001f0: 5eff 9ebf a7ab b53f 5b15 c13f a491 edbd
00000200: e5fa 48bf 5f02 d63e 531c e03e ad07 74be
00000210: f2ce 8dbf 1ef0 3c3f 0f0f 97bf 0804 b6bf
00000220: db45 92bf 3be1 2b3e a916 ca3e 4a7e 47bf
00000230: 5a6d 8abf 7449 8a3f 8164 363f d948 973e
00000240: bcc8 79be bb2e 31be 013e 873f 8fc4 8a3f
00000250: 01b7 b83f 58fd 66bf b1b0 d5be 843e 70bf
00000260: b044 2b3f 5277 be3e 32e8 ad3e 6cdd 33bf
00000270: 497b 063f a914 8fbd c8a6 68bf 9feb 2f3f
00000280: 3d96 42bf 4fc8 6bbe 5def c1bf d1e6 a33e
00000290: 335a 09bf 5820 5fbf 0a2f 873f b215 a0bf
000002a0: ecad 6dbf 1f58 5b3d 0a76 5b3e 1cfd 53bf
000002b0: e7fb 893f 024f d33e 8f4a b0bf b1f2 c23f
000002c0: 3dd3 bc3f d89d 78bf 9353 8b3f fe4a 923f
000002d0: 864d 80bf b134 a1bf ddf4 c7be 48f0 5bbf
000002e0: c6e6 2c3f 18f2 9fbe 7221 e4bd 6be3 283f
000002f0: 935e e2be 4eb2 abbf 4799 89bf 3ae7 babf
00000300: 8f5d 413f c426 fb3e 92fc 833f ce0f 003e
00000310: 8c2d 6b3f a230 d5bf 6fe4 7fbd 31a0 a0bd
00000320: 54b7 4c3f 32f9 b3bf a604 f63e 5e70 893f
00000330: 1c94 743f 6634 86be 442d 983f 9af0 0440
00000340: db02 47be f986 a53f 9f5c 3cbf c4a6 933f
00000350: 1eed a03f 75dc 95bf 1403 3b3f bf08 273f
00000360: 213f 643e f02b 293f 6c29 3b3f 1d6c 2d3e
00000370: 6aad 553f c50b 1abe 3442 b7bd 61bd a2bf
00000380: adf7 853f 85ad 99bf afb4 70be 0653 123f
00000390: 7ffa 59be 4326 8bbf f6b4 27be abba bbbe
000003a0: 171b 0cbf 8c59 2abe ad1a 193d 8c89 ae3f
000003b0: 6bb1 96bd 72c5 c2bf cba7 8fbe 01f4 b6be
000003c0: e89a 933f 0704 b2be cd9c a03f e814 a6bf
000003d0: b97e d53f ce3e 76bf d7c7 aebe 2447 39bf
000003e0: 069e afbf 4fd0 f4be eb29 8b3f 248d 3dbf
000003f0: a11a a4bf c641 ce3f ddca 8a3f 6ca9 97be

fc2.bias f4 [64]
0.7175027 -0.77029884 -0.6019405 -0.8060186 0.78631413 -0.25345117 0.2551424 0.4362758
0.6540205 -0.07262878 -0.13618779 -0.80546445 -0.39401755 -0.681031 0.713112 -0.048518024
-0.6703801 -0.11230888 0.17365113 -0.10121922 -0.6524235 0.08072555 0.590582 -0.4383523
0.13510157 -0.100407235 -0.3543136 0.13172784 0.20189746 0.39276987 0.08141802 -0.16944857
0.09719431 -0.7359247 -0.50372875 -0.710145 0.18275091 -0.09566761 0.32752657 -0.5549996
-0.2021773 -0.19954282 0.46963385 0.47207558 -0.17152311 -0.24373822 -0.77819496 -0.13166438
-0.5308985 -0.5997515 -0.09081389 -0.25004616 -0.19567904 0.32572743 -0.796154 -0.12844695
-0.5436054 0.04399446 0.21011783 -0.12987056 0.72886544 0.16328532 -0.26723838 -0.23589727
00000000: 42ae 373f 4e32 45bf c618 1abf 3c57 4ebf
00000010: e24b 493f 5ac4 81be 06a2 823e 8b5f df3e
00000020: e36d 273f 66be 94bd d074 0bbe eb32 4ebf
00000030: abbc c9be 0c58 2ebf 828e 363f d6ba 46bd
00000040: 089e 2bbf 3302 e6bd 9ad1 313e 064c cfbd
00000050: 3a05 27bf 7053 a53d 6230 173f b66f e0be
00000060: 1158 0a3e 4fa2 cdbd 9868 b5be aae3 063e
00000070: 35be 4e3e 2219 c93e 7ebe a63d ed83 2dbe
00000080: cf0d c73d 9065 3cbf 5ef4 00bf 10cc 35bf
00000090: 0e23 3b3e 61ed c3bd 90b1 a73e 7414 0ebf
000000a0: 9107 4fbe f454 4cbe d973 f03e e4b3 f13e
000000b0: c1a3 2fbe 8396 79be c937 47bf 07d3 06be
000000c0: f7e8 07bf 5089 19bf a2fc b9bd 0d06 80be
000000d0: 1660 48be bfc5 a63e c0d0 4bbf 9987 03be
000000e0: b929 0bbf 8933 343d 2129 573e cafc 04be
000000f0: ed96 3a3f 4434 273e 78d3 88be 0e8f 71be

value.weight f4 [1, 64]
-13.602227 13.398633 13.583491 13.500946 -13.582416 -13.220652 13.16875 -13.4977455
-13.62706 13.071475 -13.203955 13.555538 13.2928295 13.422924 -13.484141 -13.444482
13.348003 12.656675 12.615299 13.344267 13.323047 13.255952 -13.462281 13.218675
12.578249 13.018651 13.171469 -12.709849 13.303945 -13.365106 13.416682 12.751257
-12.603906 13.469555 13.263178 13.575131 -12.583081 -13.240047 13.01084 13.296143
13.244981 -12.549737 -13.430361 -13.716555 -12.654897 13.275984 13.606888 12.90426
13.568126 13.499428 -12.646748 -13.2944975 13.124028 -13.405153 13.562178 -12.804019
13.158892 12.735172 12.983733 -13.188369 -13.46948 12.81171 12.832305 -13.258432
00000000: b9a2 59c1 cd60 5641 fb55 5941 e003 5841
00000010: 9351 59c1 ca87 53c1 33b3 5241 c4f6 57c1
00000020: 7008 5ac1 c324 5141 6643 53c1 7ce3 5841
00000030: 6eaf 5441 4cc4 5641 0bbf 57c1 991c 57c1
00000040: 6c91 5541 be81 4a41 44d8 4941 1e82 5541
00000050: 332b 5541 6118 5441 8165 57c1 b17f 5341
00000060: 8240 4941 654c 5041 56be 5241 8b5b 4bc1
00000070: f5dc 5441 79d7 55c1 bbaa 5641 2605 4c41
00000080: 99a9 49c1 4c83 5741 fa35 5441 bd33 5941
00000090: 4d54 49c1 3cd7 53c1 672c 5041 00bd 5441
000000a0: 71eb 5341 b9cb 48c1 c2e2 56c1 0277 5bc1
000000b0: 757a 4ac1 6e6a 5441 d0b5 5941 d977 4e41
000000c0: 0b17 5941 a8fd 5741 1459 4ac1 43b6 54c1
000000d0: 05fc 5141 827b 56c1 aefe 5841 43dd 4cc1
000000e0: d28a 5241 44c3 4b41 5fbd 4f41 8f03 53c1
000000f0: fd82 57c1 c4fc 4c41 1f51 4d41 8a22 54c1

exp_avg f4 [64, 11]
0.012851276 -0.0013403603 0.002308467 -0.0112057375 -0.011154705 -0.020956848 0.033180624 -0.03679442
2.76846e-05 0.0 0.0 0.011394874 -0.0018571143 0.00217243 -0.010170765 -0.010067846
-0.010081171 0.015778692 -0.017446661 -5.801508e-05 0.0 0.0 -0.019558823 0.0023139745
-0.0036677103 0.018116757 0.018098168 0.0035376314 -0.0050266027 0.0039458605 3.1373886e-06 0.0
0.0 -0.0017734248 0.0012615981 -0.0019182547 0.0011809667 0.0011693013 0.019404117 -0.031092493
0.0347909 -0.00010955662 0.0 0.0 0.0012386573 -0.0020098148 0.0025125893 -0.0005691138
-0.0005387862 -0.013358612 0.020852642 -0.02315325 6.2273306e-05 0.0 0.0 -0.013760643
0.0045805434 -0.005452543 0.012618545 0.01261885 0.011699281 -0.017093595 0.017921165 3.8303813e-05
0.0 0.0 -0.052434623 0.008008553 -0.011071083 0.049244545 0.049220335 0.011945373
-0.015945664 0.013113451 0.00012052974 0.0 0.0 -0.000673714 -0.0008061355 0.00061576476
0.00079478126 0.00077246263 -0.0014341752 0.0016036321 -0.0017339389 -0.0001016092 0.0 0.0
0.011653272 -0.0027273342 0.0034418767 -0.010672042 -0.010588365 -0.007208392 0.010823667 -0.011338707
-4.227273e-05 0.0 0.0 -0.054693714 0.008414482 -0.011975801 0.051086627 0.051036116
0.02064918 -0.029593462 0.028286288 0.00014515016 0.0 0.0 0.002254573 -0.00044933753
0.00036557126 -0.0025733076 -0.002621228 0.0074009104 -0.012242106 0.014195846 -0.00013270196 0.0
0.0 0.009994406 -0.0018945367 0.0026879623 -0.0091145765 -0.009091393 -0.0077529266 0.011687632
-0.0123061165 1.8681705e-05 0.0 0.0 0.029292233 -0.0055669625 0.00797641 -0.029547406
-0.029599303 -0.004122349 0.0051894486 -0.002982728 -0.00013003749 0.0 0.0 -0.034088854
0.0070943064 -0.009550842 0.03132005 0.031199694 0.024066474 -0.036313236 0.037927803 0.00011992673
0.0 0.0 -0.0004378966 0.0016681218 -0.002205606 0.00017349706 0.0001828524 0.013163503
-0.02053802 0.022842696 -9.693172e-05 0.0 0.0 -0.17568952 0.032677267 -0.04373775
0.16219704 0.16174787 0.09593238 -0.14270213 0.145653 0.00056331954 0.0 0.0
0.03762199 -0.006552818 0.009078401 -0.035331 -0.03531162 -0.01289953 0.01859561 -0.017353887
-0.0001428842 0.0 0.0 -0.007129653 0.001962715 -0.0024752466 0.0061524287 0.0061180587
0.0132379085 -0.020712266 0.022982964 -3.0379674e-06 0.0 0.0 -0.0029400955 0.0010833582
-0.0012949634 0.0026030813 0.0026275434 0.0006453253 -0.00015827989 -0.00039449777 -1.7612425e-05 0.0
0.0 -0.00848268 0.00057429075 -0.0013101073 0.0077516283 0.0077740736 0.009089176 -0.014485218
0.015768722 -6.5041655e-05 0.0 0.0 -0.10928165 0.022898229 -0.030738097 0.10178555
0.101539716 0.07928432 -0.119451754 0.12477188 0.00033022754 0.0 0.0 0.013540931
-0.0027025258 0.0037567911 -0.01273921 -0.012730425 -0.0049769995 0.007110791 -0.006691636 -6.6088287e-06
0.0 0.0 0.036096524 -0.0029150357 0.004546556 -0.033223964 -0.033145797 -0.003916414
0.0060115587 -0.0048511988 -1.2613285e-05 0.0 0.0 0.08680189 -0.014773777 0.019749584
00000000: 298e 523c 07af afba a649 173b 4598 37bc
00000010: 39c2 36bc b2ad abbc 68e8 073d bfb5 16bd
00000020: 3a3c e837 0000 0000 0000 0000 91b1 3a3c
00000030: 6a6a f3ba 545f 0e3b 48a3 26bc 9bf3 24bc
00000040: 7f2b 25bc 5142 813c 4dec 8ebc 3855 73b8
00000050: 0000 0000 0000 0000 d339 a0bc 0da6 173b
00000060: f85d 70bb 9869 943c 9c42 943c 9bd7 673b
00000070: 33b6 a4bb 474c 813b ed8b 5236 0000 0000
00000080: 0000 0000 4372 e8ba 355c a53a f26d fbba
00000090: abca 9a3a 3e43 993a 62f5 9e3c afb5 febc
000000a0: e780 0e3d c3c1 e5b8 0000 0000 0000 0000
000000b0: 715a a23a 19b7 03bb 41aa 243b 9530 15ba
000000c0: 543d 0dba 14de 5abc 29d3 aa3c e2ab bdbc
000000d0: ba98 8238 0000 0000 0000 0000 5274 61bc
000000e0: 6218 963b 3fab b2bb 04be 4e3c 4bbf 4e3c
000000f0: 57ae 3f3c de07 8cbc 68cf 923c 68a8 2038
00000100: 0000 0000 0000 0000 b0c5 56bd 4e36 033c
00000110: 7d63 35bc a6b4 493d 439b 493d 87b6 433c
00000120: 7ba0 82bc cdd9 563c e9c4 fc38 0000 0000
00000130: 0000 0000 2e9c 30ba d652 53ba 466b 213a
00000140: de58 503a 177f 4a3a effa bbba f730 d23a
00000150: 5645 e3ba 0617 d5b8 0000 0000 0000 0000
00000160: 5eed 3e3c 13bd 32bb 1c91 613b cad9 2ebc
00000170: d27a 2dbc 6034 ecbb c055 313c fcc5 39bc
00000180: 004e 31b8 0000 0000 0000 0000 8406 60bd
00000190: e5dc 093c 2636 44bc 3640 513d 3f0b 513d
000001a0: 7828 a93c fd6d f2bc a5b8 e73c 7333 1839
000001b0: 0000 0000 0000 0000 75c1 133b 1095 ebb9
000001c0: 25aa bf39 f0a4 28bb e9c8 2bbb 5683 f23b
000001d0: 1d93 48bc b295 683c e925 0bb9 0000 0000
000001e0: 0000 0000 94bf 233c 1a52 f8ba 8628 303b
000001f0: 4e55 15bc 11f4 14bc 430c febb 7b7d 3f3c
00000200: 989f 49bc a8b6 9c37 0000 0000 0000 0000
00000210: 44f6 ef3c 116b b6bb 7daf 023c 670d f2bc
00000220: 3d7a f2bc c514 87bb 400c aa3b df79 43bb
00000230: ac5a 08b9 0000 0000 0000 0000 c1a0 0bbd
00000240: 5b77 e83b 237b 1cbc 7449 003d 8096 ff3c
00000250: 0e27 c53c 30bd 14bd 2f5a 1b3d 2c81 fb38
00000260: 0000 0000 0000 0000 7d95 e5b9 e1a4 da3a
00000270: ee8b 10bb c3ec 3539 11bc 3f39 bcab 573c
00000280: 5a3f a8bc 9b20 bb3c d247 cbb8 0000 0000
00000290: 0000 0000 f4e7 33be 99d8 053d 5b26 33bd
000002a0: fb16 263e 3ca1 253e 3278 c43d 8220 12be
000002b0: 0f26 153e bcab 133a 0000 0000 0000 0000
000002c0: 8419 1a3d 06b9 d6bb 93bd 143c 3db7 10bd
000002d0: eba2 10bd 8d58 53bc d255 983c bd29 8ebc
000002e0: 2fd3 15b9 0000 0000 0000 0000 dd9f e9bb
000002f0: e5a0 003b bf37 22bb 509a c93b ff79 c83b
00000300: d0e3 583c c5ac a9bc c546 bc3c e2df 4bb6
00000310: 0000 0000 0000 0000 9eae 40bb 78ff 8d3a
00000320: c3bb a9ba 7598 2a3b dd32 2c3b 0c2b 293a
00000330: eff7 25b9 98d4 ceb9 65be 93b7 0000 0000
00000340: 0000 0000 f0fa 0abc 008c 163a e8b7 abba
00000350: 5f01 fe3b a8bd fe3b c4ea 143c 6853 6dbc
00000360: 682d 813c f966 88b8 0000 0000 0000 0000
00000370: 0fcf dfbd 1195 bb3c 76ce fbbc f174 d03d
00000380: 0ef4 cf3d d15f a23d 1fa3 f4bd 6688 ff3d
00000390: 6422 ad39 0000 0000 0000 0000 c8da 5d3c
000003a0: dc1c 31bb 7f34 763b 1fb8 50bc 4693 50bc
000003b0: 1916 a3bb a301 e93b 8345 dbbb 68c1 ddb6
000003c0: 0000 0000 0000 0000 f3d9 133d 2f0a 3fbb
000003d0: 47fb 943b da15 08bd e3c3 07bd 4355 80bb
000003e0: 9cfc c43b cef6 9ebb a69d 53b7 0000 0000
000003f0: 0000 0000 30c5 b13d b60d 72bc e1c9 a13c

exp_avg_sq f4 [64, 11]
0.003586548 0.00018494054 0.00016791042 0.0028062933 0.0027916902 0.003126075 0.0069045657 0.0090307705
5.460116e-07 0.0 0.0 0.0012261166 4.046041e-05 2.9321182e-05 0.0010009769 0.0009923861
0.00063348457 0.0012546211 0.0015639057 9.508838e-06 0.0 0.0 0.007227731 0.00015561582
0.00013010413 0.00500122 0.004926559 0.004530621 0.008481178 0.009673595 4.632841e-06 0.0
0.0 0.0041910405 0.00016470098 0.00014446813 0.0031998004 0.0031669054 0.0031986395 0.0068009202
0.008694049 1.2961342e-06 0.0 0.0 0.0012549801 6.114133e-05 5.3231037e-05 0.0009925807
0.0009861431 0.00080910546 0.0016862687 0.0021269007 1.9123265e-05 0.0 0.0 0.0025517212
8.052179e-05 6.4084044e-05 0.0018814317 0.0018696745 0.0006494724 0.0011181531 0.0012815195 5.3794283e-05
0.0 0.0 0.03909684 0.00091272144 0.0007197326 0.027780041 0.02744145 0.021724561
0.040575694 0.046399765 8.245276e-05 0.0 0.0 0.0005302053 1.4245696e-05 1.1466586e-05
0.00038473684 0.0003797478 0.00028824163 0.0005509369 0.0006681063 6.7561385e-05 0.0 0.0
0.001384794 4.0494004e-05 3.377535e-05 0.00097555405 0.0009653834 0.00057804893 0.0011637787 0.0014305039
2.557856e-06 0.0 0.0 0.037215296 0.0009856714 0.0007883163 0.027198162 0.02690718
0.02039439 0.038599547 0.04467413 0.00012810627 0.0 0.0 0.0011486172 3.413658e-05
2.811931e-05 0.00084760285 0.0008371433 0.00076603197 0.0015399414 0.0018738253 7.360046e-05 0.0
0.0 0.0010835041 3.23924e-05 2.5655425e-05 0.0007647281 0.00075837685 0.0005546741 0.001046991
0.0012255446 1.3278815e-06 0.0 0.0 0.013110749 0.00034079448 0.00026235267 0.010307111
0.010187121 0.005953846 0.0108266175 0.012336911 2.087256e-05 0.0 0.0 0.012676542
0.00041869582 0.00033916385 0.009282896 0.0092118215 0.0053945994 0.010181455 0.011761806 1.982473e-05
0.0 0.0 0.0015919763 6.759185e-05 7.448178e-05 0.0010907265 0.0010751243 0.001361038
0.0031074032 0.0041379365 5.7784648e-05 0.0 0.0 0.32291842 0.009284695 0.007340156
0.23482215 0.232724 0.14607325 0.2735094 0.3157269 0.0011265747 0.0 0.0
0.021347493 0.00052936136 0.00042456674 0.015059844 0.014883708 0.011627075 0.021602618 0.024595976
6.267327e-05 0.0 0.0 0.0015142881 6.781319e-05 5.9055852e-05 0.0012297966 0.0012204447
0.0012059249 0.0025651916 0.0033163303 2.2304457e-06 0.0 0.0 0.00036461986 8.029225e-06
9.396705e-06 0.00023998304 0.00023550697 0.00019375056 0.00040210123 0.000510333 2.0550748e-07 0.0
0.0 0.0011889914 4.518681e-05 5.1470204e-05 0.0008171918 0.0008055097 0.0011863243 0.002814568
0.0038599153 3.4474437e-05 0.0 0.0 0.12526791 0.004182818 0.0033834353 0.09440994
0.093703635 0.053779267 0.10148551 0.11898447 0.0004526759 0.0 0.0 0.0032575144
8.0022786e-05 6.7357134e-05 0.002310318 0.0022798136 0.0019380974 0.003820708 0.00456389 1.2283646e-06
0.0 0.0 0.013058463 0.0002761923 0.0002123841 0.0091199 0.008998439 0.007503144
0.014131807 0.016251465 1.4261751e-07 0.0 0.0 0.077802576 0.0020981443 0.0016466285
00000000: 4a0c 6b3b 99ec 4139 1c11 3039 cae9 373b
00000010: caf4 363b d6de 4c3b b23f e23b ccf5 133c
00000020: a291 1235 0000 0000 0000 0000 a5b5 a03a
00000030: 09b4 2938 c2f6 f537 3633 833a f412 823a
00000040: 6e10 263a 1972 a43a f8fb cc3a 2688 1f37
00000050: 0000 0000 0000 0000 9ad6 ec3b ce2c 2339
00000060: 906c 0839 46e1 a33b f96e a13b 9b75 943b
00000070: a4f4 0a3c 007e 1e3c cd73 9b36 0000 0000
00000080: 0000 0000 ff54 893b 95b3 2c39 5e7c 1739
00000090: beb3 513b db8b 4f3b 44a0 513b 41da de3b
000000a0: 7c71 0e3c d5f6 ad35 0000 0000 0000 0000
000000b0: 257e a43a 0039 8038 6444 5f38 7b19 823a
000000c0: 7941 813a 261a 543a ca05 dd3a 7963 0b3b
000000d0: e66a a037 0000 0000 0000 0000 c73a 273b
000000e0: cfdd a838 dc64 8638 5f9a f63a de0f f53a
000000f0: 5b41 2a3a fe8e 923a a9f8 a73a 2ca1 6138
00000100: 0000 0000 0000 0000 0224 203d b343 6f3a
00000110: 70ac 3c3a f892 e33c e4cc e03c b5f7 b13c
00000120: b332 263d ae0d 3e3d 7dea ac38 0000 0000
00000130: 0000 0000 7afd 0a3a cc00 6f37 9d60 4037
00000140: 81b6 c939 e318 c739 231f 9739 c06c 103a
00000150: db23 2f3a beaf 8d38 0000 0000 0000 0000
00000160: fa81 b53a 1bd8 2938 02aa 0d38 53bc 7f3a
00000170: c911 7d3a 3588 173a ef89 983a bf7f bb3a
00000180: a2a7 2b36 0000 0000 0000 0000 116f 183d
00000190: a531 813a 03a7 4e3a aece de3c 726c dc3c
000001a0: 2312 a73c 8f1a 1e3d 38fc 363d 4454 0639
000001b0: 0000 0000 0000 0000 338d 963a e02d 0f38
000001c0: c2e1 eb37 aa31 5e3a bc73 5b3a 89cf 483a
000001d0: dcd7 c93a 259b f53a f259 9a38 0000 0000
000001e0: 0000 0000 5d04 8e3a 13dd 0738 9b36 d737
000001f0: 0978 483a cfcd 463a 8c67 113a 303b 893a
00000200: 74a2 a03a a939 b235 0000 0000 0000 0000
00000210: 78ce 563c a9ac b239 618c 8939 28df 283c
00000220: e2e7 263c 7b18 c33b 2062 313c c120 4a3c
00000230: 7b17 af37 0000 0000 0000 0000 45b1 4f3c
00000240: 6784 db39 cdd1 b139 4a17 183c 2eed 163c
00000250: 2ec5 b03b 1ed0 263c 97b4 403c 494d a637
00000260: 0000 0000 0000 0000 dca9 d03a 19c0 8d38
00000270: 1a33 9c38 b5f6 8e3a 2feb 8c3a db64 b23a
00000280: 93a5 4b3b 8797 873b cb5d 7238 0000 0000
00000290: 0000 0000 9055 a53e d51e 183c b185 f03b
000002a0: 3875 703e 334f 6e3e 3a94 153e 6d09 8c3e
000002b0: f5a6 a13e 93a9 933a 0000 0000 0000 0000
000002c0: f0e0 ae3c d7c4 0a3a 6298 de39 90bd 763c
000002d0: ccda 733c 7d7f 3e3c f9f7 b03c 807d c93c
000002e0: 756f 8338 0000 0000 0000 0000 147b c63a
000002f0: ee36 8e38 bdb2 7738 2031 a13a 54f7 9f3a
00000300: 2010 9e3a c61c 283b ca56 593b c4ae 1536
00000310: 0000 0000 0000 0000 732a bf39 42b5 0637
00000320: 8aa6 1d37 f5a3 7b39 6cf2 7639 8529 4b39
00000330: 1dd1 d239 dec7 053a 77a9 5c34 0000 0000
00000340: 0000 0000 eed7 9b3a f886 3d38 b6e1 5738
00000350: d038 563a d728 533a 707e 9b3a 9e74 383b
00000360: a2f6 7c3b a598 1038 0000 0000 0000 0000
00000370: 3b46 003e 0510 893b a0bc 5d3b 005a c13d
00000380: b1e7 bf3d a647 5c3d a3d7 cf3d 21ae f33d
00000390: 2155 ed39 0000 0000 0000 0000 067c 553b
000003a0: e8d1 a738 1642 8d38 b468 173b ed68 153b
000003b0: c207 fe3a d864 7a3b af8c 953b 49de a435
000003c0: 0000 0000 0000 0000 2af3 553c e7cd 9039
000003d0: 6cb3 5e39 a26b 153c 306e 133c efdc f53b
000003e0: 1889 673c cb21 853c 6722 1934 0000 0000
000003f0: 0000 0000 f556 9f3d 0581 093b afd3 d73a

exp_avg f4 [64]
-0.01128739 -0.010289048 0.018697007 0.0007663561 -0.00018997154 0.012622992 0.050701167 0.00091522484
-0.0108061 0.052397348 -0.0028187132 -0.009225554 -0.030513277 0.031793866 -0.00013654513 0.16538665
-0.03624891 0.0060605225 0.0026279404 0.007944546 0.1033081 -0.013020097 -0.03442593 -0.08163738
-0.042517032 0.042331073 -0.025656898 -0.005997656 -0.016300775 -0.013755493 -0.05006676 0.08696053
-0.018919803 -0.0014434931 0.014224374 -0.010768235 0.022202048 0.033965502 -0.010749777 0.0019975952
0.025581514 -0.05885482 -0.009754741 -0.026528303 0.00087418885 0.022559922 -0.01819777 0.0589086
0.020969648 0.038021546 0.07940975 -0.002660614 -0.03707671 -0.021333797 0.0039808652 -0.107098415
-0.01101321 -0.060178023 0.06342164 0.006096998 0.0058031576 0.0007144424 -0.026896536 0.035801042
00000000: bfee 38bc 6593 28bc 772a 993c 4ae5 483a
00000010: 1933 47b9 aad0 4e3c 07ac 4f3d b3eb 6f3a
00000020: 120c 31bc 9a9e 563d 29ba 38bb c726 17bc
00000030: fbf6 f9bc 493a 023d 8e2d 0fb9 1e5b 293e
00000040: bd79 14bd 5997 c63b 8639 2c3b d729 023c
00000050: 3293 d33d 3f52 55bc 3402 0dbd 8031 a7bd
00000060: 5726 2ebd 5963 2d3d 6a2e d2bc fc87 c4bb
00000070: 3489 85bc b85e 61bc ce12 4dbd 5d18 b23d
00000080: b4fd 9abc 9733 bdba 590d 693c 406d 30bc
00000090: 12e1 b53c 691f 0b3d d51f 30bc 16ea 023b
000000a0: 5390 d13c c011 71bd 59d2 1fbc e251 d9bc
000000b0: d229 653a 96cf b83c 7d13 95bc 254a 713d
000000c0: 8ac8 ab3c 7bbc 1b3d 94a1 a23d b25d 2ebb
000000d0: c0dd 17bd 37c4 aebc eb71 823b 6a56 dbbd
000000e0: c070 34bc 3b7d 76bd 34e3 813d 54c9 c73b
000000f0: 6a28 be3b 6b49 3b3a 2056 dcbc 1da4 123d

exp_avg_sq f4 [64]
0.0031434428 0.0010968789 0.0054476555 0.003536673 0.0011066044 0.0020689347 0.0303244 0.0004200384
0.0010720158 0.02978843 0.0009285883 0.0008407448 0.01125587 0.010240203 0.0012177469 0.25788915
0.016468748 0.0013641858 0.000261843 0.00090951606 0.10407255 0.0025240853 0.009929512 0.061004955
0.013035151 0.026954044 0.0057637617 0.00045249367 0.0027294082 0.0010913044 0.030285979 0.076907575
0.0041160984 0.0012397256 0.003404981 0.0010015713 0.0075192065 0.013516773 0.0018245318 0.00045866068
0.004768475 0.041561484 0.0010780785 0.010331262 0.0010022764 0.0049850284 0.0032384044 0.0378593
0.006685625 0.012520582 0.059236925 0.0002761826 0.010715991 0.0025916593 0.0030750602 0.11696948
0.0015059982 0.05086123 0.032875955 0.0024751711 0.001010361 0.00101895 0.008114021 0.018777763
00000000: 3802 4e3b 26c5 8f3a 3f82 b23b 87c7 673b
00000010: 7b0b 913a f796 073b e06a f83c 9a38 dc39
00000020: e282 8c3a de06 f43c 826c 733a 6e65 5c3a
00000030: 8a6a 383c 86c6 273c ce9c 9f3a 0c0a 843e
00000040: 78e9 863c 7bce b23a f947 8939 976c 6e3a
00000050: fd23 d53d 206b 253b 64af 223c 55e0 793d
00000060: 6391 553c bace dc3c f0dd bc3b ac3c ed39
00000070: dfdf 323b 190a 8f3a 4d1a f83c b881 9d3d
00000080: 56e0 863b 4a7e a23a 1a26 5f3b 2847 833a
00000090: ad63 f63b 7475 5d3c 2125 ef3a 6578 f039
000000a0: de40 9c3b 603c 2a3d 504e 8d3a 7444 293c
000000b0: d15e 833a 7359 a33b 693b 543b 5a12 1b3d
000000c0: 1613 db3b 2123 4d3c 6ba2 723d 9acc 9039
000000d0: 2092 2f3c d4d8 293b f386 493b b28d ef3d
000000e0: ea64 c53a dd53 503d f0a8 063d 7b36 223b
000000f0: 176e 843a 4a8e 853a acf0 043c d3d3 993c
