pre-trained models/Walker2d_weights.pth (torch_old, 139273 bytes, 36 tensors)

log_std f4 [1, 6]
000000 df 9b 55 c0 84 b8 53 c0 2b 6d 52 c0 b2 d3 49 c0
       -3.3376386 -3.308137 -3.287913 -3.1535459
000010 2a ab 5b c0 13 f8 5b c0
       -3.432322 -3.4370162

fc1.weight f4 [64, 17]
000000 cd fc 5f 3e a2 ed 8c bd f9 03 2f bd 3d 83 70 be
       0.2187378 -0.06881262 -0.042728398 -0.23487563
000010 68 75 0d 3d 6c b0 a5 3d 79 bf 5f be 1d 92 a6 bb
       0.034535795 0.080902904 -0.21850385 -0.005083336
000020 67 2c 96 be 6a 10 c8 3e fe 09 b3 3d 42 c0 31 3c
       -0.2933075 0.39075023 0.0874214 0.0108490605
000030 72 64 87 be c7 c3 34 3e 76 2d bc 3e ed a7 08 bf
       -0.2644382 0.17652808 0.36753434 -0.53381234
000040 71 a4 4d bd 4d bb 98 3d 48 5a 71 3e 2a a5 18 3e
       -0.05020565 0.074576 0.23569596 0.14906755
000050 db fd e2 bb 24 25 13 be bc bf ef bd 39 a7 9e 3d
       -0.0069272346 -0.14369637 -0.11706492 0.07746739
000060 97 88 20 be 29 a4 48 3d 08 a4 b3 3e 4a af 04 bd
       -0.15677105 0.04898468 0.35086083 -0.03239373
000070 22 27 24 3e f3 c2 04 be 53 9b 15 3c b0 7b 94 3d
       0.16030553 -0.12964992 0.00913127 0.07250154
000080 1c e2 80 be ae 2e a0 be 0c b0 72 3d e3 ad 17 be
       -0.25172508 -0.31285614 0.059249923 -0.14812426
000090 f2 8b 18 be 1e 60 8a be 36 e2 81 be 1d 84 8c be
       -0.14897135 -0.27026457 -0.25367898 -0.27444544
0000a0 43 51 6c 3e d1 a4 3c 3e 54 f2 78 bc 84 2c 1c 3d
       0.23077874 0.18422247 -0.015194494 0.03812839
0000b0 14 e2 96 3d 67 72 b5 3e 75 52 89 3d cb a4 0e be
       0.0736734 0.35438845 0.067051806 -0.13930051
0000c0 94 bd ef 3d a4 71 01 be 67 51 00 3f df 0a 6c 3e
       0.11706081 -0.12641007 0.5012421 0.23051022
0000d0 50 d6 c4 bd d7 79 ee 3e f8 63 89 3d 05 cb a8 bd
       -0.09611189 0.4657733 0.06708521 -0.08241848
0000e0 45 cd bd 3e f6 ed 39 3e 59 a6 16 3c ba cc 3b be
       0.3707067 0.18157181 0.009194934 -0.18339816
0000f0 ec bc 61 be cc f0 68 bd cb 2a 2a 3d a8 61 00 bd
       -0.22044724 -0.056870267 0.041544717 -0.031343132
000100 9e 5c 90 be 1c c5 1b be c0 b5 4d 3e 7a 47 20 3e
       -0.2819566 -0.1521191 0.20088863 0.15652266
000110 d5 a7 29 3e 73 0b 92 3e 20 f0 67 be 6f 54 76 3e
       0.16567929 0.2852436 -0.22650194 0.24055646
000120 ec 53 f4 bd a7 d3 27 be f8 1e 82 be 52 1a a0 3e
       -0.11930069 -0.16389333 -0.25414252 0.3127008
000130 41 aa c7 3c f3 e7 30 3b 3a 41 ad be df 92 f4 bc
       0.024373176 0.0026993721 -0.33838826 -0.02985519
000140 40 3c a8 3d 5e 49 25 be 49 1e 3d 3e e2 e3 e6 3c
       0.08214617 -0.16141269 0.18468584 0.028184835
000150 a9 1f 0d 3e a7 b9 a6 bd 37 ec 31 bd 88 43 86 be
       0.13781609 -0.08140879 -0.043438163 -0.26223397
000160 c9 c7 3d 3d 7a 98 98 3e cd 24 93 be cd a8 c9 3e
       0.046333108 0.2980383 -0.28739014 0.39386597
000170 84 5b c1 3e b8 a9 d4 be e6 3e 61 3e 10 a7 4b 3e
       0.37765133 -0.41535735 0.2199665 0.19887948
000180 dc 10 99 bd b6 ff 09 be 0c 17 13 3e 0f 9b 70 bd
       -0.07473919 -0.13476452 0.1436426 -0.058741625
000190 b6 c2 95 3e d7 68 84 3d be af 3a 3d c6 99 de be
       0.29250115 0.06465309 0.045577757 -0.43476695
0001a0 c6 b7 a2 bd 7f 17 2d 3b 60 c9 6e 3e 18 3a 9e bd
       -0.07945208 0.002641171 0.23319006 -0.07725924
0001b0 40 38 9f be b0 80 d5 3d 78 bf a6 3d ca ce 21 be
       -0.31097603 0.10424936 0.081419885 -0.1580154
0001c0 55 c2 be bb 2f a8 b2 3d 16 e4 15 bd 4c 24 45 3c
       -0.005821506 0.08723485 -0.036594473 0.01203258
0001d0 07 30 19 3e 93 77 f3 be ea 6d b3 3d 4e 59 c1 be
       0.14959727 -0.47552165 0.08761199 -0.37763447
0001e0 10 3f 01 3f 93 1b ac 3e 62 bc 7d 3e 4a 27 fb 3d
       0.5048685 0.33614787 0.24778894 0.12263353
0001f0 0f de e7 3e e0 11 52 be 03 31 b1 3c ff 50 2c 3e
       0.45286605 -0.20514631 0.021629816 0.16827773
000200 6f be 35 be 2d d7 58 3d 69 20 76 be 0f 1b 6e 3d
       -0.17748426 0.052939583 -0.24035801 0.058131274
000210 2a ee 8c be e7 7f af bd 4f 38 99 be 7f 34 63 3e
       -0.27525455 -0.08569317 -0.29925773 0.22187994
000220 d2 01 19 3d 18 42 87 3c e4 fe b6 3e 19 24 fb be
       0.03735525 0.016511008 0.3574134 -0.49050978
000230 9d 0f 04 3e 13 51 2e 3f dc 07 87 3e dd b4 1d 3e
       0.12896581 0.6809246 0.26373184 0.15401025
000240 d4 35 f8 bd 0d 54 b3 3d 22 b3 7e bc 62 35 a3 3e
       -0.12119642 0.08756266 -0.015545638 0.31876665
000250 0b 36 b8 bd 18 ae 90 3e 53 9f 1c 3e 78 4c a1 3e
       -0.08994683 0.28257823 0.15295152 0.31503654
000260 92 cc 02 3e 9b 27 db be 6b 0e 1a 3e 56 cf 22 bc
       0.1277335 -0.42803654 0.15044563 -0.009937128
000270 94 b4 ae 3e 3d f4 7e 3e ee a5 2a bd 95 4c e9 3e
       0.34122145 0.24897857 -0.04166215 0.4556624
000280 06 47 e7 3d 79 f2 75 be cf 33 33 be e6 bd 7d 3e
       0.112928435 -0.24018277 -0.17500232 0.24779472
000290 93 d2 a7 3d 13 ba 32 3e c3 af e0 3c 0c 91 77 bd
       0.08194461 0.17453794 0.02742756 -0.06044106
0002a0 6a 00 fe bd cc ee 75 bd e4 f2 c3 3e e1 cd 9c be
       -0.12402423 -0.060042188 0.38271248 -0.30625823
0002b0 58 06 52 3e a8 a4 c4 be 63 f6 9b bb 5b 7b 06 3e
       0.20510232 -0.38406873 -0.004759596 0.13132994
0002c0 e4 42 3e be b1 d6 e1 bd 92 e4 ba bd 0a 97 a1 be
       -0.18580204 -0.11027277 -0.091256276 -0.31560546
0002d0 52 b8 c1 bd 91 53 60 be 6e 0c 81 bc 89 35 2f bd
       -0.094589844 -0.21906878 -0.015752997 -0.042775664
0002e0 ea 11 b7 3e 8e fe 1c bd b8 7f 17 be d7 82 0c bd
       0.35755855 -0.0383287 -0.14794815 -0.034304466
0002f0 53 36 28 3e 2b 07 7a bc d2 22 02 bb 1f 09 59 3e
       0.16426973 -0.015260498 -0.001985718 0.21194886
000300 70 2e cf 3d e4 e0 5c 3e 64 bd b4 3e 38 5a ae bd
       0.10116279 0.21570164 0.35300744 -0.085133016
000310 28 d3 2b be 29 60 49 3e 4a d3 40 bd fc 9f b2 3d
       -0.16779768 0.19665588 -0.0470765 0.08721921
000320 24 d2 8e be 40 eb 3f be ed c4 a6 be d0 60 28 3e
       -0.278947 -0.18742085 -0.32572117 0.16443181
000330 2a 5e 2a 3d dc bf e9 3b 8d dc 13 3e d2 22 0e bf
       0.041593708 0.007133467 0.14439602 -0.5552188
000340 32 e5 b2 bd 60 f4 c3 bd aa 63 b8 be 95 4b a2 be
       -0.08735122 -0.09568095 -0.36013538 -0.3169829
000350 a4 b0 dd 3d a2 2d d8 bd 2c d7 d3 ba 4c fa 4a be
       0.10824707 -0.10555579 -0.0016162149 -0.19822043
000360 f4 7b ad 3e 9b 04 1e 3e f4 a7 a7 be 92 d3 70 3d
       0.3388363 0.15431444 -0.32745326 0.05879552
000370 4b b3 c1 3e eb e9 29 be b7 d7 e9 bd 10 94 e2 be
       0.37832102 -0.16593139 -0.114180975 -0.44253588
000380 67 c1 c3 3d 04 67 4e 3d c4 a1 fb bd 64 54 c6 bd
       0.09558373 0.050391212 -0.12286714 -0.09684065
000390 60 68 82 3e 07 56 7a 3e 32 0a 2d bb b9 90 93 be
       0.25470257 0.2444688 -0.0026403782 -0.28821352
0003a0 f8 39 14 be 1e ee df 3d 0d 26 5c 3d b3 a3 0f be
       -0.14475238 0.10934089 0.053747226 -0.1402729
0003b0 17 a7 15 be 30 49 9a 3d f3 5e d1 3d f9 59 ef bd
       -0.14614521 0.07533491 0.10223188 -0.11687083
0003c0 e9 b6 26 3e ef 67 b3 bd e8 33 cb be 48 a5 b9 3e
       0.16280712 -0.08760058 -0.3968804 0.36258912
0003d0 ce e6 15 3e 10 be a6 3d 87 fb 63 be f1 13 a3 3e
       0.14638826 0.0814172 -0.22263919 0.31851152
0003e0 43 b6 5f 3c 93 23 07 be 27 da 19 3e 1e 33 55 be
       0.013654294 -0.13197164 0.15024625 -0.20820281
0003f0 a5 c7 04 be c5 70 9d bd b0 70 3b be a0 3a 80 be
       -0.12966783 -0.07687525 -0.18304706 -0.25044727

fc1.bias f4 [64]
000000 2e c3 cf bc 23 4d 29 3c 73 37 59 3d 74 71 07 be
       -0.025361624 0.010333332 0.053031396 -0.13226873
000010 e9 c9 f1 3b 95 43 99 bc 12 6c a7 3d c3 81 f4 bd
       0.007378806 -0.018708983 0.0817491 -0.119388126
000020 cf 75 3b bd 23 72 2a be 06 52 dc 3c 1e ec 80 bb
       -0.045766648 -0.16645102 0.02689458 -0.0039343974
000030 22 c3 0b 3e 1a a1 81 bd 23 fd c0 bb 52 e2 19 3c
       0.13648656 -0.06329556 -0.0058895512 0.009392338
000040 3f a7 1a 3e d9 96 53 3d c3 4e d5 3d 36 15 eb bd
       0.15102862 0.05165753 0.10415413 -0.11478655
000050 b2 1e c9 bd 59 1e 05 bc 17 e3 6d be 59 89 d3 3c
       -0.09820308 -0.008124911 -0.23231159 0.025822328
000060 04 eb 00 3e fb 97 a0 be d4 23 2d 3c 7f bf 1a 3e
       0.12589651 -0.31365952 0.010567624 0.15112112
000070 dc bc 24 bd 87 6a 8d bd 9e a0 30 bd 9b 7d a2 bd
       -0.040219173 -0.06905084 -0.043121926 -0.079341136
000080 c6 18 c5 3d 76 19 bf bc e2 08 b6 bb f7 75 fb 3d
       0.09623866 -0.02332757 -0.005555258 0.122783594
000090 98 85 75 3d 89 07 7d be 80 e5 39 be 0f 93 ca bd
       0.059941858 -0.24709906 -0.18153954 -0.098913305
0000a0 04 19 98 3d bd cc 9a 3d 3f fa e7 bd 42 5f 08 3d
       0.07426646 0.07558582 -0.113270275 0.03329397
0000b0 de 26 0b 3e 98 c8 09 3e 87 2b c3 bd 77 ca 77 bc
       0.13589045 0.13455427 -0.095297866 -0.015123955
0000c0 5a ff e8 3d ad 91 9b 3b c9 ab 54 3e 09 84 df 3c
       0.113768294 0.0047475905 0.20768656 0.027284639
0000d0 15 21 03 bd 1c 87 2b 3e 11 09 01 be 5f d8 d6 bd
       -0.03201397 0.16750759 -0.12601115 -0.10490488
0000e0 89 88 c6 3d da 18 d4 bc 1d 91 2e bd 6b ae 6b 3e
       0.09694011 -0.025890756 -0.04261886 0.23015754
0000f0 c8 0a ba bd 44 b0 4c 3e b4 1c 3b 3e d2 a7 ea bd
       -0.090840876 0.19989115 0.18272668 -0.114577904

fc2.weight f4 [64, 64]
000000 f2 2b 91 bd 33 39 97 3d d8 c9 64 be 23 e2 f7 3c
       -0.0708846 0.07383957 -0.22342622 0.030259198
000010 c0 29 8f 3d 63 f6 4b bd 89 89 20 be e6 0c e6 bd
       0.06990385 -0.04979552 -0.15677465 -0.11232929
000020 0c fa 1d bc 79 2a 7d be dd ba 21 3f 68 49 db bd
       -0.009642135 -0.24723233 0.63175756 -0.107073605
000030 88 2f 43 be a9 c8 4c bd 9f 42 94 be ef 53 f9 bd
       -0.190611 -0.049996052 -0.28957078 -0.12174212
000040 3c 40 22 3e ee da c1 3d c7 e7 2d bd 30 28 3b be
       0.15844816 0.09465586 -0.04245737 -0.18277049
000050 f8 47 c6 bd 76 30 47 be 23 9f 45 bb 90 2e 95 3c
       -0.09681696 -0.1945208 -0.0030154667 0.01821068
000060 f5 e0 21 3e 4b 3a 36 3e c7 3b cc 3e 30 c1 41 3d
       0.1580847 0.17795675 0.39889356 0.04730338
000070 f7 61 06 3e fc ac 47 bd a0 43 0d be 7c 08 7b be
       0.13123308 -0.048748955 -0.13795328 -0.24514955
000080 44 82 2c bd 89 69 aa 3d c8 4b f3 bd 35 8b ce bd
       -0.04211642 0.083209105 -0.118796885 -0.100851454
000090 c9 31 6e 3e 83 fb 09 3d c6 7e 0a bf 62 6c 78 be
       0.23261179 0.033687126 -0.5409969 -0.24260095
0000a0 87 89 d2 3d e4 95 ad 3a 65 69 b1 bb 9f d6 af 3d
       0.102801375 0.0013243523 -0.0054141753 0.085858576
0000b0 bd a5 69 3d 5e 7e 77 3e ac f5 1d 3d 7d a1 6e 3e
       0.057042826 0.24169299 0.03856437 0.2330379
0000c0 c4 fa ec 3d 8a b7 3e bc e6 1d ba 3e f5 ce 93 be
       0.11571267 -0.011640439 0.36350936 -0.28868833
0000d0 9b 63 37 3e 97 4f 74 3d d5 c8 2f 3d 0d fd 8e bc
       0.1790909 0.059646215 0.042916138 -0.017454648
0000e0 ef 98 8c bd 36 cb 82 3e fa f1 e0 3e 49 b5 a0 3d
       -0.06865107 0.25545663 0.43934613 0.078470774
0000f0 42 46 6c 3e 18 43 f1 bd ca 43 72 bc 39 69 f1 3d
       0.23073676 -0.11780375 -0.01478667 0.11787648
000100 98 ba 35 be 6b 4a 2a bc 3a 59 54 be d8 2c b9 bd
       -0.17746961 -0.010393719 -0.20737162 -0.090417564
000110 b9 71 b9 be 0b 73 aa 3e 2f 7d c4 3c 32 4a de be
       -0.36219576 0.33290896 0.023985473 -0.43415982
000120 4c c8 79 3e 9f 9d df bd 6a eb 2e 3e 6c 8d 81 be
       0.24392813 -0.10918736 0.17081991 -0.2530321
000130 6b 3a 94 be 49 e1 1f 3e 6d db 82 be cb 98 62 3d
       -0.2895082 0.15613283 -0.25558034 0.055321496
000140 d6 2e 1a 3e e5 b8 7e 3e e3 ab d5 3d 2f 2f 93 be
       0.15056929 0.24875219 0.104331754 -0.28746936
000150 e0 f8 e4 be 7d 32 e7 3d c7 3f 94 bc af 53 a8 bc
       -0.44721127 0.11288927 -0.018096818 -0.020547716
000160 33 eb b1 be 4f 82 1b be 52 5d b5 3d 0f 8f ec be
       -0.34749755 -0.15186428 0.0885569 -0.46202895
000170 08 88 25 3e 61 1f 92 bd 16 df 0c 3e 01 9f 98 bd
       0.16165173 -0.07134891 0.13756976 -0.074522026
000180 23 23 80 be 6b 90 a7 be 62 14 4e 3e ef 56 a7 be
       -0.25026807 -0.3272737 0.20124963 -0.32683513
000190 90 af 41 3d 87 71 35 bd 95 b9 83 3e 7a 98 2b be
       0.04728657 -0.04429772 0.25727525 -0.16757384
0001a0 f7 0e 43 3d 29 16 1a 3d 75 df 1b 3e 97 6b 0d be
       0.047621693 0.03761879 0.15221961 -0.13810574
0001b0 ac 92 0d 3c df b2 fc 3d 60 9a 26 be ce 10 4d 3e
       0.008640926 0.123388045 -0.16269827 0.20025942
0001c0 f0 a4 85 3e c7 64 3a bd 0f 74 18 bd ac 07 cf 3e
       0.261024 -0.045506265 -0.037220057 0.4043554
0001d0 79 92 6d bd 20 60 a2 3e 57 f5 2d 3d 3d b0 2a 3e
       -0.058001015 0.31713963 0.042470302 0.16668792
0001e0 f4 06 0e 3e 1d a4 8b be fd 01 96 3e 19 8c 09 bd
       0.1386984 -0.27273646 0.29298392 -0.033580873
0001f0 01 28 eb be ca 5c 66 3e a9 08 65 3e 24 f4 0a 3e
       -0.45928958 0.22496334 0.22366585 0.13569695
000200 57 43 13 be b1 81 01 bf ac 57 f8 bd b9 32 49 3e
       -0.14381157 -0.5058852 -0.12126097 0.19648255
000210 e4 82 61 bd 75 7a ac 3e e6 c7 4c be 2b 64 a6 be
       -0.055056468 0.33687177 -0.1999813 -0.32498297
000220 5e 71 23 3e 83 da 74 be 89 c0 5a 3d 4e fd 1c be
       0.15961215 -0.2391148 0.053406272 -0.15331003
000230 d6 56 a5 3d cd b5 82 3c 05 70 55 be b9 de af be
       0.08073203 0.01595583 -0.20843513 -0.3434961
000240 39 37 3e 3f bb dd 6f bd b8 cd 41 be d3 87 af be
       0.74303013 -0.058561068 -0.18926132 -0.34283313
000250 74 d3 19 bd eb ca d4 3d 47 4b 10 be a5 a7 8a 3e
       -0.037555173 0.10390266 -0.14091216 0.27081028
000260 b2 5c f7 3d 1c 25 c6 be 46 37 9b bd 0f 66 ab 3a
       0.12078227 -0.38700187 -0.07578902 0.001307668
000270 7c 0b 62 3e 66 1c be bc 54 38 76 bd 29 a5 a9 be
       0.22074693 -0.0232069 -0.060112312 -0.3313382
000280 c5 86 b6 bd 20 14 61 bd f8 ae 8f be 19 aa 49 3e
       -0.08912424 -0.054950833 -0.28063178 0.19693793
000290 e3 e8 7f be 91 9b 08 be 8f 38 d4 3d 53 ae a7 be
       -0.24991183 -0.13340594 0.1036235 -0.32750186
0002a0 1b b9 b4 bc 8c 4d c6 bd bc 30 95 3e e3 ea 97 bd
       -0.022060921 -0.0968276 0.29138744 -0.07417848
0002b0 ad 0b 34 be a3 eb 8c be 93 25 45 be 1c 8d f9 be
       -0.17582579 -0.27523527 -0.19252615 -0.4874047
0002c0 3c e3 d5 3e 88 a5 31 be c7 2b 37 3d b2 11 bd 3e
       0.4177493 -0.17348301 0.044719484 0.36927563
0002d0 53 c1 9c be ad e1 32 3e 8b b0 d0 3e 33 0b 35 3e
       -0.30616245 0.17468901 0.40759692 0.17680053
0002e0 f3 6d b9 bd 3e cb 83 bc 96 e7 c5 bd 22 bc 2c be
       -0.09054174 -0.016088124 -0.09663312 -0.16868642
0002f0 88 a2 9e be bc c5 0e 3e 1a 66 63 bd 7d d1 8f 3d
       -0.30983377 0.13942617 -0.055517294 0.070223786
000300 98 c0 c6 bd 5f fb dc 3d d2 4d 13 bd 01 e2 86 be
       -0.09704703 0.10790133 -0.035962887 -0.26344302
000310 68 9c 28 be bb 28 2c bb 3f 25 a6 3c 57 0d 2b bd
       -0.16465914 -0.0026269394 0.020281432 -0.04176077
000320 59 fe c6 bc 69 d1 cd 3b f2 28 a9 be 67 ee e5 bd
       -0.024291204 0.006281067 -0.3303905 -0.11227112
000330 91 d7 37 bc 64 37 83 3e 13 44 8c be a7 02 b2 3d
       -0.011220829 0.25628197 -0.27395687 0.08691912
000340 4c 90 ef 3c 85 e1 49 be 4e d6 ee be 79 51 c9 bd
       0.02924361 -0.19714935 -0.46647877 -0.09829993
000350 da 89 1c be 3e 21 af bc aa 25 d4 bd 44 e7 f7 3b
       -0.15286961 -0.021378156 -0.10358746 0.007565411
000360 85 e6 88 bd 79 c6 cf 3d 86 db 41 be 53 81 42 bd
       -0.06684593 0.101452775 -0.18931398 -0.047486614
000370 19 f2 00 3d de c4 cb 3c 43 f7 d6 3e b7 1e 20 3e
       0.031480882 0.024874147 0.4198552 0.15636717
000380 e0 ce 5f bd 1c e3 90 3e a9 b2 41 be 08 04 c6 bd
       -0.05464065 0.2829827 -0.1891581 -0.09668738
000390 4d e2 6b be 8e e3 27 3d 75 7c c2 3e 18 66 15 3d
       -0.23035546 0.040988497 0.37985578 0.036474317
0003a0 17 32 46 3e 7c 8f c8 3d 50 69 d8 bd ee 60 61 be
       0.19355045 0.097929925 -0.10566962 -0.22009632
0003b0 41 e3 88 3d 2d 5e 44 be 32 59 56 be c5 de b9 3d
       0.0668397 -0.1917655 -0.20932463 0.09075693
0003c0 52 6f b8 be 8d de 55 be f5 16 ab be bb bd 82 3e
       -0.3602243 -0.20885678 -0.33415952 0.25535378
0003d0 35 5c fc bd 9c 51 bb bd 6c bb df 3e f8 3e 45 bc
       -0.123222746 -0.09146425 0.4369768 -0.012038939
0003e0 76 a1 16 3d 67 77 9c 3d 51 c4 93 3e 1f 01 81 3e
       0.036775075 0.07639962 0.28860715 0.25196168
0003f0 c7 9a b4 3e 2a 91 f3 bd d9 9a e0 bb ba 69 11 3e
       0.35274336 -0.11892922 -0.006854397 0.14200488

fc2.bias f4 [64]
000000 28 99 5e 3e 3e 77 8e 3d 4d 9b f6 3d 07 88 d0 bb
       0.21738112 0.069563374 0.1204134 -0.006363872
000010 90 fd cd 3d 64 e1 bb 3c 44 d9 85 3d 59 7a dd 3c
       0.10058129 0.022934623 0.06535581 0.027035879
000020 d6 fe 2e be 12 d2 0b 3e c6 09 08 3e 56 b3 1b 3e
       -0.170894 0.13654354 0.13284978 0.1520513
000030 dc 46 87 3c da fc d1 3d 00 69 75 bd cb 70 93 3d
       0.01651328 0.10253306 -0.05991459 0.07199248
000040 d9 89 b6 3c 34 87 8a be 84 35 29 3e 8a d4 0f 3c
       0.022282528 -0.27056277 0.16524321 0.008778701
000050 bf 8d a3 bd 71 e1 54 3d fd bd 50 be 55 fa c8 3c
       -0.0798602 0.05197281 -0.20384975 0.02453343
000060 09 db c7 3d 7c 7c 1d 3d 55 ba 67 bd 81 11 64 bb
       0.097585745 0.038448796 -0.056574184 -0.0034800472
000070 9b 0e b5 3e 8d 20 8a 3e 73 67 02 3e 35 42 f4 bd
       0.35362706 0.2697796 0.12734775 -0.119266905
000080 46 db af 3e cb 56 26 3e 5d b4 46 3d b2 aa bb 3c
       0.3434698 0.16244046 0.04851185 0.022908542
000090 fa 8d 2f 3e aa 2f d0 bb 3b 34 df 3c bc 3d 01 be
       0.17144004 -0.0063533382 0.027246585 -0.12621206
0000a0 2b 30 6d be e5 fe 83 3e e8 d8 3c bd 9d aa ff 3d
       -0.23162906 0.25780407 -0.046105295 0.12483714
0000b0 a4 50 20 bd 9d 9d d7 3c ee c6 2b 3e 2d 66 04 bd
       -0.039139405 0.026320273 0.16775104 -0.032324005
0000c0 11 f2 de bd d0 1c 2b be ab 6b 1e bc 7e 9d 96 3d
       -0.10886014 -0.1671021 -0.009669225 0.07354258
0000d0 6c a9 32 be 94 99 94 3d fc 82 a6 3d 6b 5c b3 bd
       -0.17447442 0.07255855 0.08130452 -0.08757862
0000e0 49 58 0d bd c3 41 0b be 3b f3 b7 bd 7a b4 d2 3d
       -0.034508023 -0.13599305 -0.089819394 0.102883294
0000f0 74 a5 8c 3d 36 dc 81 3d 30 53 3b 3e e1 8a 92 bd
       0.06867495 0.0634083 0.18293452 -0.07155395

mu.weight f4 [6, 64]
000000 55 62 95 3e df 8d e3 bd be b0 1c bd 99 36 9f 3d
       0.29176584 -0.11111044 -0.038254492 0.077740856
000010 50 8d d6 bd b8 fb 3e 3d 7d e9 7c be 5c b0 29 3e
       -0.10476172 0.046626776 -0.24698444 0.16571182
000020 db 66 04 3b 1e cf 01 3e 9a 79 a7 3d 2b ef 91 bd
       0.0020202908 0.12676665 0.081774905 -0.07125696
000030 f9 e3 8d 3d a4 a8 8a be 63 5e ae 3d 9d 6f 66 3e
       0.06928248 -0.27081788 0.085140966 0.22503515
000040 73 71 4e 3c 2a 6e 25 be a4 19 52 3d d5 85 c0 be
       0.012600291 -0.16155306 0.051293984 -0.37602106
000050 77 e4 19 3e 94 a7 5c bd 05 f1 95 be 0e ea d3 bd
       0.15028559 -0.053870752 -0.29285446 -0.10347377
000060 82 13 6b 3c a0 d1 ab 3d 22 2a 8b bd 3c 25 ca bc
       0.014347913 0.08389592 -0.067951456 -0.024675958
000070 90 a8 4d 3e 35 13 09 3e da 4e 27 be 39 8d 2d 3e
       0.20083833 0.13386233 -0.16338673 0.16948403
000080 5f 99 8e 3e 93 bd aa 3d 18 25 e6 3d 66 a3 1f 3e
       0.27851388 0.0833694 0.11237544 0.15589675
000090 2c 89 11 bd 4c e2 26 bd ed a5 e6 bd 92 ae 54 bd
       -0.035531208 -0.040743157 -0.112621166 -0.051924296
0000a0 c6 90 d2 3d 71 8c 34 3e 05 6b 47 3d 6e fb 83 bb
       0.102815196 0.17631699 0.048686046 -0.0040277755
0000b0 b9 44 d8 bd 26 ac 87 3d ec cf f7 3d d1 6b 27 3c
       -0.10559983 0.066246316 0.12100205 0.0102185765
0000c0 17 d8 22 3e 49 6a 56 be 92 46 76 be 15 26 61 3e
       0.15902744 -0.20938982 -0.24050358 0.21987183
0000d0 ad 59 0c be 43 46 45 bd 2b 7c 76 3e 3e ff b8 bd
       -0.13706084 -0.04816271 0.24070804 -0.090330586
0000e0 96 4e 2b be 7f fd b4 be 98 ef 96 bd 23 9d c7 3d
       -0.16729197 -0.35349652 -0.07369918 0.09746768
0000f0 63 0e 83 3d c6 89 46 bd ad f0 13 bd 21 4b 8e be
       0.063992284 -0.048471235 -0.0361182 -0.27791694
000100 81 92 b2 ba 34 f0 84 bd 59 7d 5a 3e 98 fa 05 bc
       -0.0013623984 -0.064911276 0.21336879 -0.008177422
000110 33 e1 a6 3c cc da 3d be af 28 6d bd 66 96 83 3d
       0.020371055 -0.18540496 -0.057900127 0.064251706
000120 4c a4 18 be fc bb b1 3d 3c 6b 5e 3d 30 f5 4c bc
       -0.14906424 0.08678433 0.054301485 -0.012509629
000130 fa 70 39 be 51 3a 24 3e 74 07 9d be d0 84 70 bd
       -0.18109503 0.16037871 -0.3066975 -0.05872041
000140 43 f8 cf bd 3f 86 b5 bd e2 60 a7 bd 9b 27 05 bf
       -0.10154774 -0.08863496 -0.08172776 -0.5201356
000150 9f 03 0b bd ff 1a be 3d af 6c 4c 3d b8 5c 57 3e
       -0.033939 0.09282493 0.049908336 0.21031463
000160 15 9e 87 be c0 04 7e 3e 1d ce 08 bd bd aa 31 bd
       -0.26487795 0.248065 -0.03339969 -0.04337572
000170 fa bd 71 3e 3e 35 00 3e 4b b2 11 3e a3 f9 e6 3d
       0.23607627 0.1252031 0.1422817 0.11278083
000180 ed 14 ed bd 90 f2 cf bd a3 7c 5b 3e dd b9 13 be
       -0.11576257 -0.10153687 0.21434264 -0.1442637
000190 fd 0c 8e bd 27 95 50 be 14 e9 46 3e f3 49 80 3d
       -0.06936071 -0.20369397 0.1942485 0.06264105
0001a0 e3 44 8d be c1 cb 1e 3e d5 79 49 3e 8e a9 c5 bd
       -0.2759162 0.15507413 0.19675381 -0.096514806
0001b0 f4 fd ee 3c 12 cf 5c bd ab b9 cb 3d 81 51 6b 3e
       0.029173829 -0.053908415 0.09947523 0.2298031
0001c0 a2 88 8f bd a2 d7 f6 bc ff 78 97 be 46 a8 07 bd
       -0.070084825 -0.030132119 -0.295845 -0.033119462
0001d0 f4 c6 2e 3e d0 9c a9 bd 28 9a 16 be 9d 1e 46 be
       0.17068082 -0.08281863 -0.14707243 -0.19347616
0001e0 80 06 6f bd 64 d0 f0 bd 4e b3 03 3e c8 78 b3 bc
       -0.05835581 -0.11758497 0.12861368 -0.021908179
0001f0 5c c8 1e be e8 91 a1 3d 02 09 be 3d e4 c4 02 3e
       -0.15506119 0.078891575 0.09279062 0.1277042
000200 48 8c 0d 3e e1 3e b1 be dc be 83 be bb 56 85 bd
       0.13823044 -0.34618285 -0.25731552 -0.06510683
000210 2a 00 90 be 2b d2 e4 be 2c 39 2c 3d 51 19 d1 3d
       -0.28125125 -0.44691595 0.04204671 0.10209907
000220 a5 15 22 be 19 ae c8 3d 03 00 83 bc 61 cf b4 be
       -0.15828569 0.097988315 -0.015991217 -0.35314468
000230 a7 fd 3f 3d 55 07 93 3e 29 7b 99 bd 77 e1 0a be
       0.04687276 0.2871653 -0.07494194 -0.1356257
000240 15 c2 81 3e 63 62 c7 bd ed ad 76 3e d8 55 a6 bd
       0.25343385 -0.09735563 0.24089785 -0.08121842
000250 87 ab 0f be 8e 5c 78 3e 29 7f 1e 3e 40 08 03 bd
       -0.14030276 0.24254057 0.15478195 -0.03199029
000260 a7 55 a9 bd 58 cc 81 be 95 18 37 be 19 c6 ae 3d
       -0.0826829 -0.25351214 -0.17880471 0.08533878
000270 fb 61 31 3e 7c b6 59 3d 94 d4 27 3e 17 fc 82 3e
       0.17322533 0.053152546 0.16389686 0.25582954
000280 c4 e2 6b 3d 34 85 ac bc 12 89 5c be e2 80 bb 3d
       0.057589307 -0.02105961 -0.21536663 0.09155442
000290 d5 6a 08 be 77 55 58 3e 91 03 ad bc 37 7a 80 bd
       -0.13322003 0.21126352 -0.021119865 -0.06273311
0002a0 d4 80 3a 3d e9 d5 0a 3c 5f 7b 23 bd 8d 08 99 3c
       0.045533016 0.008473852 -0.039912578 0.018680835
0002b0 c2 ac 27 be ce cc 08 be 46 ad b0 bd c3 6f e1 bc
       -0.16374496 -0.13359377 -0.08626799 -0.027519112
0002c0 46 8f c8 bd b6 1e d0 3c 51 a4 86 3e f5 39 29 bd
       -0.09792952 0.02540527 0.26297238 -0.041315038
0002d0 8e 1d 58 be 7d 13 b5 be 9e 4e 5d 3e 74 bb 0c bd
       -0.21105024 -0.3536643 0.21612021 -0.034358457
0002e0 8d ad cf 3c 44 f9 6f 3d d9 53 ac 3d f8 3f 01 3e
       0.02535131 0.058587328 0.0841443 0.12622058
0002f0 b5 fc ef 3d f4 9c 82 3e ca c9 22 3e a1 36 6f 3e
       0.11718122 0.2551037 0.15897289 0.23360683
000300 2a 19 a0 3e a5 d8 be 3e 44 0d ca bd 25 ff eb bd
       0.312692 0.37274662 -0.098658115 -0.11523274
000310 e2 0b 2c be 4c 70 94 be ae aa 38 3d 46 4b 18 be
       -0.16801408 -0.28991926 0.045084648 -0.14872465
000320 8d a0 db bd bb af ee bd 8b 6a 8b 3e a6 fe 36 be
       -0.10723982 -0.11654612 0.27229723 -0.17870578
000330 95 7d f2 3d 17 62 58 bd d2 35 33 3d a4 2e 65 3e
       0.11840359 -0.05282792 0.0437525 0.22381073
000340 9a e2 33 be 8b f6 de 3d 7d 88 11 3e 73 98 96 3d
       -0.1756691 0.10886868 0.14212222 0.07353296
000350 25 53 c4 3d 5b ba 73 3e 81 28 2c 3d d1 79 32 bd
       0.09586171 0.23801558 0.042030815 -0.043573204
000360 f5 62 e6 3d fc 8f 1b 3e 10 c7 c0 3d 98 01 b0 be
       0.11249343 0.15191644 0.09412968 -0.34376216
000370 c1 c0 02 bd dd a6 70 3d 9f 9b 98 3e 3d db a9 bd
       -0.031922106 0.058752883 0.2980623 -0.082937695
000380 5c c3 01 3a dc 1a 24 bd 8b 3a 22 3e ff 7f ea bd
       0.000495007 -0.040064678 0.15842645 -0.114501946
000390 b5 1e 38 3d 83 39 0f be b9 5d 63 3e 38 67 fe bd
       0.04495116 -0.13986783 0.22203721 -0.12422031
0003a0 2d 44 a2 bd c2 5f 93 3d 4f 7c 5d bc 24 ae 9a bc
       -0.0792316 0.07195999 -0.013518407 -0.018881865
0003b0 1a 8b 5e bd e2 b4 16 3e f6 45 01 bd f2 c6 86 be
       -0.054331876 0.14717439 -0.03156086 -0.26323658
0003c0 b4 2f 2d 3e 5a 02 40 be 2f 9d a5 3e 4f ab e0 3d
       0.16912729 -0.18750897 0.32346484 0.109701745
0003d0 34 4d 18 be 5b d4 8c 3d 89 91 94 3e f3 0a be 3b
       -0.148732 0.06876441 0.29017285 0.005799645
0003e0 b3 7b 6d 3b 64 8b 5f bc 6d f1 4f 3c 6d 38 d1 bb
       0.003623706 -0.013644073 0.012691838 -0.0063849003
0003f0 00 9b ae 3e 55 5d e1 3d 8d 7d 86 3e 61 f7 19 be
       0.3410263 0.1100413 0.26267663 -0.15035774

mu.bias f4 [6]
000000 ff 55 59 3e 2d 94 8c 3d 94 44 6d 3d c9 60 7c 3d
       0.21224211 0.068642 0.05792673 0.06161574
000010 e2 ea 03 3e 79 f0 13 3d
       0.1288257 0.036118004

fc1.weight f4 [64, 17]
000000 4d e8 89 bf b0 6d ab 3e 81 20 a9 be c6 46 e2 be
       -1.0774018 0.33482122 -0.3303261 -0.4419462
000010 60 a9 e2 be 27 24 f9 3e 49 73 6c 3e 09 71 9f be
       -0.44269848 0.48660395 0.23090853 -0.31140926
000020 db c7 35 3f 9e 79 3c 3e ed 96 5c be fa 72 1d 3e
       0.7100808 0.18405768 -0.21541949 0.15375891
000030 96 4b 99 3e 36 f0 ee bd 48 e9 33 be d0 3a 93 bd
       0.2994048 -0.1166691 -0.17569458 -0.07188952
000040 a4 f7 c7 bc aa 2f bd bf 97 c0 60 bf 5d 46 93 be
       -0.024410076 -1.4780171 -0.8779387 -0.2876462
000050 69 32 1d 3e 98 fb ce bd 74 1a 4e be ee c1 00 3f
       0.15351261 -0.101065814 -0.20127279 0.50295913
000060 9b 5c 1b be fd ea 8d be 91 f8 9e 3e b2 bd 2f be
       -0.15172045 -0.27718344 0.31049016 -0.17162207
000070 00 5b 33 3e 24 96 61 bd 05 b6 13 bd 30 b7 79 bd
       0.17515182 -0.055074826 -0.03606226 -0.060965717
000080 a6 64 46 3d d4 b7 9e bc 80 5a b9 3f 49 01 83 3f
       0.04843583 -0.019374765 1.4480743 1.0234767
000090 a8 8c 38 c0 bd 7a 3d bf a4 bb 38 3e 61 da 15 3f
       -2.883585 -0.7401541 0.18040329 0.58536345
0000a0 72 78 3a be af 62 40 bf ee 20 a8 be 84 f7 bb 3e
       -0.18210009 -0.7515058 -0.32837623 0.36712277
0000b0 44 85 9c 3d 3a eb 49 bd e6 c9 12 be 94 57 c6 bb
       0.07642606 -0.049296595 -0.1433483 -0.0060529206
0000c0 f6 49 74 3b c8 b6 89 bc cc 69 3a 3d 9a 43 39 3d
       0.003727553 -0.01681079 0.045511052 0.045230485
0000d0 1f f5 3b 3f 07 6f b0 3e 4a 4c ca 3e 34 93 41 3f
       0.734209 0.34459707 0.3951133 0.7561524
0000e0 c3 a2 5a be 3e 50 bc 3f c8 bc 09 3d 4d 8b 6b be
       -0.21351151 1.4711988 0.0336273 -0.23002358
0000f0 09 0b 31 3d ca bd d2 3e b4 de ff bd 15 68 53 bc
       0.043223415 0.41160423 -0.12493649 -0.012903233
000100 fd 7d 5c 3d 73 ab dc be eb 9a 00 be 07 a4 e6 bc
       0.05383109 -0.43099555 -0.12559097 -0.028154386
000110 3e da 48 3d f0 9a 5d be ee ed 47 3f d3 b0 c8 bd
       0.049036257 -0.21641135 0.78097427 -0.097993515
000120 df 4a 98 be 8f 38 64 3f 23 fd 3f be 18 a6 a4 3e
       -0.29744622 0.891488 -0.18748908 0.3215797
000130 c1 08 ad bd a7 be d6 bd 2f 81 db 3c e8 c2 84 be
       -0.08448935 -0.10485583 0.026794998 -0.25929952
000140 71 40 7d be 18 dd e6 3a 5e 21 4b 3e aa 83 9d 3d
       -0.24731614 0.0017613498 0.19836947 0.076911286
000150 a6 52 7a bd 66 5c 22 3f 16 2a 69 bf 26 a1 af 3e
       -0.061113976 0.6342224 -0.91079843 0.34302634
000160 2c 3f b6 bd 08 57 6c 3e d2 60 fe be ff ef e8 3e
       -0.08898768 0.23080075 -0.49683243 0.45495602
000170 5f 4c 1b bf c0 76 61 3f 19 df 1b be 93 5f e2 3d
       -0.6066341 0.88071823 -0.15221824 0.110533856
000180 20 b0 3f 3c fc 89 2e 3d 05 7c 1e bd 4c e4 ef 3d
       0.011699706 0.04261206 -0.038692493 0.11713466
000190 dc 41 90 bd 35 71 6f bd 93 54 70 be c1 77 3e bf
       -0.07043812 -0.058457572 -0.23469763 -0.7440148
0001a0 0a 79 19 3f 59 cf c8 3f d0 a2 da be cc 16 29 bf
       0.59950316 1.5688277 -0.4270234 -0.6605041
0001b0 14 f7 91 be 87 23 8c bd 70 f9 17 be f6 92 ce 3e
       -0.28508818 -0.06842714 -0.14841247 0.40346497
0001c0 fa 42 61 3e ff 25 de bd 15 ab ef bd 4a 06 a2 3c
       0.21998206 -0.10847091 -0.11702553 0.01977839
0001d0 0a 08 03 be 6f 64 2a be af 23 d2 3c d3 da 17 c0
       -0.12796035 -0.16639875 0.02565178 -2.372731
0001e0 49 5c 98 3f 1c 49 de be 57 6e ed bd 8c 6a 03 3e
       1.1903163 -0.43415153 -0.11593311 0.12833613
0001f0 80 d1 39 bf 6b 68 f4 bd 2e 2d 16 3e f2 1a 73 3e
       -0.72585297 -0.11933979 0.14665672 0.23740748
000200 b6 83 9c be 02 cc df bd d5 4a 99 bd 61 1b 5e bd
       -0.30569237 -0.10927583 -0.07484976 -0.05422533
000210 22 5c bc 3d 7e de 80 3d b9 77 79 bd a6 55 27 3d
       0.091972604 0.06292437 -0.060905192 0.040853165
000220 35 73 af 3f 7c e5 c7 3e c8 f1 30 3f f4 74 d4 bc
       1.3707033 0.3904227 0.6911893 -0.025934674
000230 0f 43 d4 3e 19 91 eb 3d fa 6b 6c 3e 79 68 95 3f
       0.41457412 0.115022846 0.23088065 1.1672508
000240 f3 cf 99 3e 66 46 98 3e af e3 6b be 20 cf 45 bd
       0.30041465 0.2974121 -0.23036073 -0.048293233
000250 f8 68 1f 3e 20 5e ca 3d c6 6f 60 3e 1a 83 87 3d
       0.15567386 0.09881234 0.21917638 0.066168025
000260 a7 4b 52 be db 63 ae 3e 98 47 17 bf 1e 05 e5 3f
       -0.20536672 0.3406056 -0.5909362 1.7892187
000270 6d 78 0f 3e 00 40 43 bd 3b 97 59 3d b7 7b 4b 40
       0.14010783 -0.047668457 0.05312274 3.179426
000280 b7 b5 1c 3f 91 48 88 bd 5e 78 17 bd 78 c3 a9 3d
       0.61214775 -0.06654466 -0.036980025 0.08289236
000290 d5 d9 54 3e 3e 97 52 39 2a 45 af bd eb 94 04 3e
       0.20786221 0.00020083503 -0.08558114 0.12947433
0002a0 9d 59 29 be a2 fd 69 bd a3 b0 49 3e ac fa bd be
       -0.16538091 -0.05712665 0.19696288 -0.3710531
0002b0 63 18 17 3f da 42 bd bd 33 32 ac 3d 9b 5d b2 be
       0.59021586 -0.092412665 0.08408012 -0.3483704
0002c0 82 1d dd 3a fc 32 1f bd 48 38 45 3f 0d eb 3d be
       0.0016869756 -0.038866982 0.77039003 -0.18546696
0002d0 8b d9 0b bf 92 35 1b 3e 6d de 5d 3e 03 0d 9c 3d
       -0.5462882 0.15157154 0.2166688 0.07619669
0002e0 f0 24 21 3e fa 4f 1a 3e 38 5a 1b bd 47 79 5d bf
       0.15736747 0.15069571 -0.037927836 -0.8651318
0002f0 0d 22 1b bf d6 3c 22 bf b7 6a 0c 40 97 53 4a 3f
       -0.6059883 -0.6337408 2.1940134 0.790338
000300 13 37 25 3f 5d 0a 5d 3f ce bf 96 3f 5f 60 97 3d
       0.6453716 0.8634394 1.1777284 0.07391428
000310 7f 0c 07 bf 98 a3 75 bd fe e0 b3 3d e9 97 cb 3d
       -0.5275344 -0.05997047 0.08783148 0.09941084
000320 e5 ea ca 3d 29 e8 a9 bd a1 2f f5 3b 39 0e c7 3b
       0.09908084 -0.08296234 0.0074824844 0.0060746935
000330 5d 24 ee 3e bf 0c 8c bf be 24 2f 3f 99 7e c1 3e
       0.46512118 -1.094139 0.6841544 0.377919
000340 d4 0d b9 3d 35 da 6f 3f bb 37 bd 3e bc 79 8c 3e
       0.09035841 0.9369233 0.3695658 0.27436626
000350 09 74 1e 3e ff f8 0a 3f 92 e3 99 3d 90 6f 9c 3d
       0.15473951 0.5428619 0.07514109 0.07638466
000360 f7 af 31 3c 5e e9 a1 bc be 73 e1 bd 14 d8 08 be
       0.010845176 -0.019764598 -0.11008404 -0.13363677
000370 d6 68 92 3d 84 12 25 be 87 9b b0 bf 32 06 b3 be
       0.07148902 -0.16120344 -1.3797463 -0.34965664
000380 bb ea 39 be bf b6 db be 02 64 a4 3f d0 33 ed bd
       -0.18155949 -0.42912862 1.284302 -0.11582148
000390 71 a0 11 be 04 5b 62 3e 43 0b a1 bc 4b b3 08 3e
       -0.1422136 0.22105032 -0.01965869 0.13349645
0003a0 9c cb 74 3d 37 16 bc bd ee 06 46 b8 fc 95 96 bd
       0.05976449 -0.09183925 -4.7213332e-05 -0.07352826
0003b0 cc a9 0a 3d ba 90 fe bb 9b ce 0d c0 45 ec 36 bf
       0.033853337 -0.0077687176 -2.2157352 -0.7145427
0003c0 c8 53 79 3f de a6 16 3f 1b 97 0f 3f f5 c9 05 3f
       0.97393465 0.5884837 0.56089944 0.52261287
0003d0 e3 1a b2 3e 49 91 89 be d3 d8 ba bd 18 9d 41 bf
       0.34786138 -0.26868656 -0.09123387 -0.7563033
0003e0 9b 27 5c 3b 36 ff 4e 3e 92 49 20 3c eb 75 2c 3b
       0.0033592943 0.20214543 0.0097831655 0.0026315402
0003f0 39 1d 78 be 68 49 c3 bd df 9e 70 bd be 34 93 be
       -0.24229898 -0.095354855 -0.05874526 -0.28751177

fc1.bias f4 [64]
000000 53 c2 8e 3e 11 cb 7d 3d 6e 5b 0b 3f 02 37 ab bf
       0.27882633 0.061961237 0.54436386 -1.3376162
000010 4e b7 cc 3e d6 9b 7a 3f e9 4e 54 bd 32 23 50 bf
       0.399836 0.97894037 -0.051833067 -0.81303704
000020 91 de d1 bf b0 70 6a bf 7b 9b d4 3e c5 30 0e 3e
       -1.6396047 -0.915782 0.41524872 0.13885792
000030 ce 7d e1 3e 34 c8 85 3e 84 77 84 3e b3 3a 2c bf
       0.44041294 0.26129305 0.25872433 -0.6727707
000040 cf 71 86 3f 17 2c b2 3d 3a b3 38 bf 39 1c 7b bf
       1.0503482 0.08699816 -0.7214848 -0.9808994
000050 0f e8 8b bf 97 12 e8 3e 27 1e 80 bf 18 cb e6 3e
       -1.0930194 0.45326683 -1.0009202 0.45076823
000060 90 2a e9 be 57 d8 bd bf 9c 4f 7a bf 1e af 12 bf
       -0.45540285 -1.4831647 -0.97777724 -0.5729846
000070 7e c5 6a 3f 3f ff b3 bf 5a b1 7d bf 9f 3c 5c bf
       0.917076 -1.406227 -0.9909874 -0.8603
000080 f9 57 98 be 28 93 9f bd f5 43 8d bf bf bd 73 bf
       -0.29754618 -0.0779174 -1.1036364 -0.95211405
000090 05 f0 c6 3e 18 8b 41 bf 90 6a 47 bf 11 de a5 bf
       0.38854995 -0.75602865 -0.77896976 -1.2958394
0000a0 31 4b d6 be e2 1e 00 bf e3 9f 54 be 92 83 5d bf
       -0.41854241 -0.50047123 -0.20764117 -0.86528885
0000b0 88 36 45 bf a9 12 22 bf e6 ba 34 3f 07 5c 0e 3f
       -0.77036333 -0.63309723 0.70597684 0.5560917
0000c0 27 c4 0b bf 10 4d f1 3e 04 39 b2 3c 2a ef 1a bf
       -0.5459618 0.47129107 0.021755703 -0.60521185
0000d0 5e 9d 8a be 2d fa 1e bf d2 ab 78 bf a1 6b 79 bf
       -0.27073187 -0.6210049 -0.97137177 -0.97429854
0000e0 cd d7 76 3d 3b 7a 2d 3f a9 9d 51 bf ba 5f c1 3e
       0.060264397 0.67764634 -0.81881195 0.37768346
0000f0 a5 20 ba be 13 a7 93 3f 96 7e 55 bf 03 1a 35 bf
       -0.3635303 1.1535362 -0.8339628 -0.70742816

fc2.weight f4 [64, 64]
000000 4c e3 24 3f 94 f8 06 3f c2 fd 8f 3f 2f f6 3d bf
       0.6440933 0.5272305 1.1249316 -0.7420377
000010 be 56 7e 3f b3 ed 98 3e d8 e1 34 bd 50 7a 47 bf
       0.9935111 0.2986885 -0.044160694 -0.7792101
000020 b8 27 3a bf a3 4f cb be 05 24 a4 be 6e bb 20 3f
       -0.72716856 -0.39709195 -0.3205873 0.62785995
000030 11 8a 11 3f 09 e5 bb 3d 23 f1 86 3f 15 de 33 3e
       0.568513 0.09174544 1.0542339 0.17565186
000040 d0 30 89 3e 51 fa 09 40 56 37 bf be 00 3d 08 3d
       0.26795053 2.155903 -0.37346905 0.0332613
000050 55 4a e7 be 4c 5c d5 be c6 c9 e9 bd a7 b1 3a bf
       -0.45173898 -0.4167198 -0.11415438 -0.72927326
000060 36 da 93 3f b7 2c 5f be 90 84 45 3f b4 db 9d 3e
       1.1550968 -0.21794401 0.771554 0.30831683
000070 e3 12 f5 3e cc 96 3d bf 50 65 89 bf 37 7b 52 bf
       0.47865972 -0.7405822 -1.0734043 -0.8221926
000080 68 a0 83 bf a2 3c b4 3d bf 28 27 3e 50 76 94 be
       -1.0283327 0.08800627 0.16324137 -0.28996515
000090 70 51 5b bf 98 51 4e be 9e a7 12 3f a3 03 d1 bd
       -0.8567114 -0.20148313 0.57287014 -0.10205772
0000a0 ae 54 18 bf 03 8f f5 3e d7 7c a1 bf 91 1e b7 3d
       -0.5950421 0.47960672 -1.2616223 0.08941377
0000b0 80 0e 3d bf 62 59 3f bf 3a c9 12 bf ae 42 4a bf
       -0.7385025 -0.7474576 -0.573383 -0.79007995
0000c0 25 7e 96 bf 57 58 5c 3f 4d 22 d5 3e 8d 97 ca be
       -1.1757246 0.86072296 0.41627732 -0.3956875
0000d0 6c 33 fa be 41 50 ad be c7 5d 88 bf 46 52 9a be
       -0.48867357 -0.3385029 -1.0653619 -0.30140895
0000e0 e6 c6 b1 3f 50 2e a7 bf 2e a4 5d bf 2e 33 8b 3f
       1.3888824 -1.3061008 -0.86578643 1.0874994
0000f0 74 2c 64 be e9 dc 34 bf 5e a2 59 3e f9 cd 0a bf
       -0.22282583 -0.7064958 0.21253344 -0.5422054
000100 40 01 e3 be 0e 60 13 bf 84 59 d6 3e 81 9a 29 3f
       -0.4433689 -0.5756844 0.4186517 0.6625138
000110 8b 4c fa be 1b 58 e8 be 11 04 f6 bc e3 b2 c9 3f
       -0.48886523 -0.4537972 -0.030031236 1.5757717
000120 0f 41 5f 3f 8e b2 03 be dd 20 e4 3b a2 72 47 bf
       0.87208647 -0.12861082 0.0069619254 -0.7790929
000130 e1 10 bb bf a6 da 18 bf 99 21 95 bf 07 f6 dc 3d
       -1.4614526 -0.5970863 -1.1650878 0.107891135
000140 c1 da 9e bd b8 32 71 bf 8b 75 dd be f8 df fb 3e
       -0.07756568 -0.94218016 -0.4325374 0.49194312
000150 48 e0 1b 3f 12 89 26 3e e0 8d e1 be 6a 3e bb 3d
       0.608891 0.16263226 -0.44053555 0.09142764
000160 31 3f 11 bf 12 ed 0a be 5f 19 1d bf c0 c9 43 3e
       -0.5673705 -0.13566998 -0.6136684 0.1911993
000170 eb b8 02 bf f8 e4 2f be 94 11 e5 3e e5 82 01 3f
       -0.5106341 -0.17177188 0.44739974 0.50590354
000180 99 0b 80 bf 7d bb b3 3e 7f 17 86 bf 86 22 d5 3e
       -1.0003539 0.3510398 -1.047592 0.41627902
000190 2b 5e 60 bd 19 23 15 3d c9 01 72 3e 9c 98 28 3f
       -0.054777306 0.036410425 0.23633493 0.65857863
0001a0 85 09 d2 be 3e 48 0c bf 03 90 85 3e ef 27 69 be
       -0.41022888 -0.5479773 0.26086435 -0.2276914
0001b0 5a e0 4a 3f 1a 18 23 be 8d 90 93 3f 47 2e f5 3e
       0.79248583 -0.15927163 1.1528488 0.4788687
0001c0 cf 71 dd 3f c9 61 82 be de 40 67 bf 0d 69 0c 3f
       1.7300357 -0.2546523 -0.90333354 0.54847795
0001d0 35 c7 46 3e cd 5a 71 3f 13 4a 54 3f b0 6b 55 3f
       0.19411929 0.94279176 0.8292553 0.83367443
0001e0 cb c0 9a bf 90 67 82 3f fa 8f 74 3f dc 4a 3b bf
       -1.2090086 1.0187855 0.9553219 -0.731611
0001f0 0f df 8e 3e 94 f5 09 3e e3 da 06 3e 9d af 06 3f
       0.27904555 0.13472587 0.13169436 0.52611715
000200 ab b6 b1 3e f5 6a 55 bd 9f da a8 bf 87 3e 29 3d
       0.34709677 -0.052103955 -1.3191718 0.041319396
000210 9c ea ce 3e 94 00 3f be f0 30 0d 3f ce bc 19 3f
       0.40413368 -0.18652564 0.551528 0.6005372
000220 4b 6b 17 bf 6d be 65 39 7b 49 92 be 43 2f 35 bf
       -0.5914809 0.00021910081 -0.28571686 -0.7077524
000230 5d 88 fc 3e 75 d7 db be 57 44 df 3e 30 82 4d bf
       0.49322787 -0.42937818 0.43606827 -0.80276775
000240 d2 7a 82 bf fa d5 da be eb ee 88 3e 28 3e ca bd
       -1.0193732 -0.42741376 0.2674478 -0.098751366
000250 1d a5 8d bf 70 fb 73 bf e8 4b c7 be 00 5c 28 3e
       -1.1066014 -0.9530554 -0.389251 0.16441345
000260 af 03 f4 bd 05 17 b7 be 1a 10 13 3e 74 1c b2 3c
       -0.11914765 -0.3575975 0.14361611 0.021742083
000270 12 b7 1d 3f 36 4d 3d be 8a ee 87 3e 53 30 4b be
       0.6160747 -0.18486485 0.26549178 -0.19842653
000280 e6 c6 7c 3f e0 89 81 bf b6 2f c9 bd 2c dd 5b bc
       0.98740995 -1.0120201 -0.09823553 -0.013419431
000290 82 60 66 3e de 39 c7 3e 9d b5 f9 3d 76 3f 93 bf
       0.22497752 0.38911337 0.12192843 -1.1503742
0002a0 e8 93 6b 3f 28 c5 ac 3d f7 f0 88 3f 0b fb 24 bf
       0.9202256 0.08436042 1.0698537 -0.6444556
0002b0 99 85 de be f4 d1 02 3e fd 18 71 bf 4a a1 ec bd
       -0.43461302 0.12775403 -0.94178754 -0.11554201
0002c0 48 de 2b 3f f9 e7 19 3f 4d 70 97 3d 18 17 46 be
       0.6713605 0.6011959 0.073944665 -0.19344747
0002d0 bb 05 33 3f ed 4f 34 3d 13 59 9f 3d f1 d1 57 3d
       0.6993062 0.044021536 0.077806614 0.05269045
0002e0 fe 85 6a 3f b3 2d 64 3d 8b 73 4a be 93 e9 82 3d
       0.91610706 0.055707645 -0.19770639 0.06392207
0002f0 f4 d1 c0 3e 57 75 39 bf 7e 2f 05 3e a8 7b c2 be
       0.37660182 -0.7244467 0.13006398 -0.37984967
000300 da c2 38 3e aa a4 e4 3e 92 d7 fc 3c d7 29 e0 3e
       0.1804308 0.4465688 0.03086451 0.4378192
000310 fd b6 fc be 4c ac 96 be 1c 7e 43 bc cc 77 99 3e
       -0.4935836 -0.29428327 -0.011931922 0.2997421
000320 d5 7d 2d 3f fd 29 6f 3f c4 58 39 3e 82 f2 18 3f
       0.6777013 0.93423444 0.18100268 0.5974504
000330 2d 0a 7e bf 13 5a 5a 3e 56 a0 dc 3b 6b df 5d bf
       -0.99234277 0.21323423 0.0067329807 -0.86669034
000340 e6 32 97 be 1f ed bc bf 89 3b 30 bf 3c f4 a1 3f
       -0.2953102 -1.4759864 -0.68840843 1.265266
000350 37 bb 96 be 04 74 06 bf 56 f9 a9 bf 64 9d 5f be
       -0.2943971 -0.52520776 -1.3279216 -0.21837384
000360 38 47 10 3f 63 40 31 bd 47 45 31 be b1 e1 20 3f
       0.5635867 -0.043274295 -0.17311583 0.6284438
000370 0e 3c 9c be 7d 5e 7a bd 3f 5e 4f 3d ef e7 c4 3b
       -0.30514568 -0.061125267 0.05062699 0.006009094
000380 77 ff 48 3d 98 85 8e be ba 82 68 bf 0e 1e f3 be
       0.049071755 -0.278363 -0.9082447 -0.47483867
000390 91 91 09 3f 21 18 a9 be 50 e8 97 be 92 27 8b bf
       0.5373774 -0.3302622 -0.29669428 -1.0871451
0003a0 91 19 7c 3e 07 a2 32 3f 49 94 45 3f a1 fb a3 bd
       0.24619128 0.69778484 0.7717939 -0.08006979
0003b0 bf b2 75 3f 2d 96 5d 3f 5e 69 f1 3e 35 66 36 3e
       0.9597587 0.86557275 0.471507 0.17812426
0003c0 b5 b2 28 3f 31 a9 4c 3f 40 1e 6d bf 9c a9 1b 3f
       0.65897685 0.79945666 -0.9262428 0.6080568
0003d0 b7 c5 dd be 79 f3 19 3f b5 c1 14 3d 6f 19 13 bf
       -0.43314907 0.60137135 0.036317546 -0.57460684
0003e0 cf b4 a0 bc 57 59 12 3f 9c 97 bf 3e 9e 54 ea 3d
       -0.019617466 0.5716757 0.37420356 0.11441921
0003f0 ca 51 0a 3f 95 1a 8a 3e dd 85 97 bf fc 47 67 3f
       0.5403105 0.26973405 -1.1837727 0.90344214

fc2.bias f4 [64]
000000 7e 79 b3 3d a6 c5 5d bf c0 e3 9e be ca d2 af 3e
       0.08763407 -0.8662971 -0.31033134 0.34340507
000010 37 15 a3 3e 7c b3 5b 3d 5b 43 14 3f 7f e0 b4 be
       0.31852123 0.053637967 0.57915276 -0.35327527
000020 9a 64 c7 bd 95 9d e2 3d d2 01 b6 be 14 00 ed bc
       -0.09735985 0.11065213 -0.35548264 -0.028930701
000030 5f d4 0f be 90 c5 22 bf ff 44 62 3e 80 4a dc 3e
       -0.14045857 -0.63582706 0.22096632 0.4302559
000040 47 f0 06 bf 8b ba c8 bd 7c a9 d8 be b8 08 cc be
       -0.52710384 -0.09801205 -0.42316806 -0.39850402
000050 6a 6e c6 3e d3 82 8e 3e bc 65 a3 3e 29 a6 a2 bd
       0.38756114 0.27834186 0.31913555 -0.07941849
000060 9c eb e6 bc 0a ad ee be 30 20 2d 3f 63 14 de 3e
       -0.02818852 -0.46616393 0.6762724 0.4337493
000070 00 86 6a 3e 81 ea 16 3f 68 26 dd 3e a6 d0 e0 be
       0.2290268 0.58951575 0.43193364 -0.43909186
000080 e3 4e 80 bf 2f 9a 93 be 63 1d 42 3d 65 31 a7 3d
       -1.0024074 -0.2882857 0.047391307 0.08163718
000090 e3 e0 fc 3d a1 e4 62 be 12 e7 22 3c 71 a0 30 3d
       0.12347581 -0.22157528 0.009942787 0.04312176
0000a0 b9 61 aa be fc 90 84 3e 6c 76 91 bd fa 9a f7 3e
       -0.3327768 0.25891864 -0.07102665 0.48360425
0000b0 b5 59 a3 be f7 74 8b be 11 b8 d1 bd 77 8c 7e 3e
       -0.3190438 -0.27237675 -0.10240186 0.2485827
0000c0 a4 4b 61 3e 0a 94 59 3f 9f 5f 03 bf 2d 2b bf be
       0.22001511 0.84991515 -0.5131778 -0.37337628
0000d0 36 cb 02 3e 63 e9 ab 3d 5e 07 9e 3e b7 a6 1a bf
       0.12772831 0.08394124 0.30864996 -0.60410637
0000e0 7a 38 30 bf be 04 ad 3d bc 37 fa 3e 7b f0 ba 3e
       -0.68836176 0.0844817 0.48870647 0.36511597
0000f0 0a 2a 12 3f 82 7f 6d 3d 61 9d 8d be f5 cf 16 bf
       0.57095397 0.05798293 -0.27659133 -0.5891107

value.weight f4 [1, 64]
000000 6c 69 f3 40 2f f5 06 c1 96 83 b2 c0 55 25 0c 41
       7.606619 -8.434859 -5.5785627 8.759114
000010 86 78 cc 40 a3 85 9f 40 4d fe 91 40 1a 85 87 c0
       6.3897123 4.985063 4.5622926 -4.2349977
000020 2d 26 de c0 b6 7f af c0 54 dc c3 40 97 f9 a3 c0
       -6.94216 -5.4843397 6.1206455 -5.1242175
000030 5f 9e ae c0 59 d1 b9 c0 7c 60 a9 c0 f2 45 ae 40
       -5.4568324 -5.806805 -5.293028 5.4460382
000040 6c dd b5 c0 e2 1e c3 40 88 4a 01 c1 dd e3 a7 c0
       -5.683279 6.09752 -8.080696 -5.2465653
000050 20 e3 de 40 b1 a7 3c 41 e1 10 cc 40 32 21 cd c0
       6.965225 11.79094 6.3770604 -6.410302
000060 99 95 9a 40 35 67 eb c0 3d 01 da 40 8f e7 ec 40
       4.8307614 -7.3563485 6.812651 7.4032664
000070 cf df d9 40 51 41 df 40 5f 83 bb 40 62 fc e4 c0
       6.8085704 6.976723 5.8597865 -7.1558084
000080 74 25 f6 c0 4b 6e 06 c1 52 a3 a7 c0 ac 6b df 40
       -7.692072 -8.401927 -5.2386866 6.9818935
000090 c9 e9 c8 c0 08 a3 ca 40 7f a1 cf 40 fc 84 89 40
       -6.278538 6.3324013 6.488464 4.2974834
0000a0 13 88 1e c1 e5 f2 de c0 cf 76 e5 c0 a8 27 ee 40
       -9.908221 -6.96715 -7.170753 7.442341
0000b0 f3 82 db c0 bf d8 d3 40 4a bd 0a 41 35 f1 ef 40
       -6.859735 6.6202083 8.671213 7.498194
0000c0 29 c9 bf c0 6f 6f fd 40 95 4a 15 c1 cd 9d ad c0
       -5.9933057 7.9198527 -9.3307085 -5.425513
0000d0 4e b3 94 c0 66 bb d8 40 53 be c7 40 a0 d5 c8 c0
       -4.646888 6.772876 6.241983 -6.2760773
0000e0 a2 4a b4 c0 3a c2 d0 c0 90 4c b7 40 08 2c e2 40
       -5.6341105 -6.5237093 5.728096 7.067875
0000f0 bc 06 de 40 74 ac bd 40 a4 15 ca c0 f5 a8 ce c0
       6.938322 5.9273014 -6.3151417 -6.4581246

exp_avg f4 [1, 6]
000000 28 df af bb 4a 44 6d bc 24 c1 7e 3a 47 07 89 bc
       -0.0053671785 -0.014481613 0.0009718111 -0.016727103
000010 7a 43 92 3b 94 6b 55 bb
       0.0044636102 -0.0032565342

exp_avg_sq f4 [1, 6]
000000 bd 94 44 3a 61 d2 53 3a 55 c8 15 3a d7 cd 8a 3a
       0.00074989704 0.000808036 0.0005713751 0.001058991
000010 a9 3e 91 3a 34 11 7a 3a
       0.0011081296 0.00095393066
